disease_classifier.tflite (tflite, 560120 bytes, 169 tensors)

deepleaf/conv1/conv/Conv2D i1 [64, 7, 7, 3]
000000 02 ff bf ff fb a2 02 fc a2 0b 04 ea 10 05 00 12
       2 -1 -65 -1 -5 -94 2 -4 -94 11 4 -22 16 5 0 18
000010 05 0a 14 01 15 fb fb 9f ff fe 8b ff fc 86 0a 05
       5 10 20 1 21 -5 -5 -97 -1 -2 -117 -1 -4 -122 10 5
000020 da 0f 06 ff 0b ff fc 0d fe 06 00 00 a5 fa fc 81
       -38 15 6 -1 11 -1 -4 13 -2 6 0 0 -91 -6 -4 -127
000030 fd fd 82 0b 06 dd 11 08 f8 09 fc f5 08 f4 f7 05
       -3 -3 -126 11 6 -35 17 8 -8 9 -4 -11 8 -12 -9 5
000040 08 de 01 06 c6 05 07 cb 0d 0d ff 13 11 14 0d 07
       8 -34 1 6 -58 5 7 -53 13 13 -1 19 17 20 13 7
000050 09 0b ff 0d 08 0b f2 07 0e e3 0a 0b e3 0d 0e 05
       9 11 -1 13 8 11 -14 7 14 -29 10 11 -29 13 14 5
000060 0d 08 0b 08 02 06 03 fa 06 08 0a ef fe 02 d5 05
       13 8 11 8 2 6 3 -6 6 8 10 -17 -2 2 -43 5
000070 04 df 0d 0d 0a 07 03 04 fe f7 f5 fc f2 f9 06 09
       4 -33 13 13 10 7 3 4 -2 -9 -11 -4 -14 -7 6 9
000080 01 02 05 e4 03 04 e8 0a 09 0b 06 05 06 fc f6 f9
       1 2 5 -28 3 4 -24 10 9 11 6 5 6 -4 -10 -7
000090 f9 ee fb e9 09 01 fd 0a f3 08 ff e8 07 fe ed 06
       -7 -18 -5 -23 9 1 -3 10 -13 8 -1 -24 7 -2 -19 6
0000a0 00 f2 f0 03 fc d6 02 04 10 fd f2 28 fa e9 34 ea
       0 -14 -16 3 -4 -42 2 4 16 -3 -14 40 -6 -23 52 -22
0000b0 df 3b ed de 2d ed e3 13 f1 ed f8 fa fe 2b f3 e9
       -33 59 -19 -34 45 -19 -29 19 -15 -19 -8 -6 -2 43 -13 -23
0000c0 41 e0 d4 62 da d2 6b dd d4 58 e0 d7 2f e4 e4 14
       65 -32 -44 98 -38 -46 107 -35 -44 88 -32 -41 47 -28 -28 20
0000d0 f6 f3 32 ee e3 5c e1 d5 74 d2 ca 7f d1 cb 6d d9
       -10 -13 50 -18 -29 92 -31 -43 116 -46 -54 127 -47 -53 109 -39
0000e0 d7 41 e0 da 1e f5 f0 2a ec e6 51 e2 de 67 d9 d4
       -41 65 -32 -38 30 -11 -16 42 -20 -26 81 -30 -34 103 -39 -44
0000f0 70 d7 d2 62 e3 dd 43 ed eb 19 ff f4 11 f4 f2 28
       112 -41 -46 98 -29 -35 67 -19 -21 25 -1 -12 17 -12 -14 40

deepleaf/conv1/bn/FusedBatchNormV3 f4 [64]
000000 9c 2b b0 3f 60 5a 3f 3f c1 43 e7 3f eb cf d7 3f
       1.3763309 0.74747276 1.8067552 1.6860327
000010 74 5a 91 3f cc e6 46 3f 25 7c 4c 3f c2 2d a1 3f
       1.1355729 0.7769592 0.7987693 1.2592089
000020 14 fd 04 3f 51 ec 8f 3f 04 08 4d 3f 08 b4 6a 3f
       0.51948667 1.1243993 0.80090356 0.91680956
000030 d8 3c 04 3f e4 21 54 be 1c 4c 91 3e 05 23 4b 3f
       0.5165534 -0.20716053 0.2837838 0.7935031
000040 fc c9 84 3f 2c a4 a3 3f a0 5a 9d bf e7 59 68 40
       1.0374141 1.2784476 -1.2293282 3.6304872
000050 a8 2e 51 3f 5a 36 3d 3f ee 5f a0 3f d4 a6 62 3f
       0.81711817 0.7391106 1.2529275 0.8853581
000060 04 9e 4b 3e c3 eb 94 3f 26 d6 67 bf f7 1b 4f 3f
       0.19884497 1.1634449 -0.9056114 0.80902046
000070 7d 81 b4 3e b2 42 56 3f ba e8 bc 3f 71 30 86 40
       0.35255042 0.8369552 1.4758523 4.1934133
000080 dc 6e 03 40 d5 92 81 3f a0 4b 48 3f 5b 03 b1 3f
       2.0536413 1.0122935 0.78240395 1.3829149
000090 5a 16 36 40 04 d9 7b 3f 82 59 8d 3f a3 3a d3 3f
       2.8451142 0.98378015 1.1042941 1.650227
0000a0 34 ed f7 3f e0 f5 a7 3f a8 4a d3 3f c3 ae bc 3f
       1.9369264 1.312191 1.6507158 1.4740833
0000b0 73 7a 1a 3f 2d 8a 85 3f 83 2d da 3f 7e 1c 4a 3f
       0.6034309 1.0432793 1.7045139 0.78949726
0000c0 cc d7 4f 40 67 d9 87 3f 84 ee fe 3e 88 96 ea 3e
       3.2475462 1.0613221 0.49791348 0.4581797
0000d0 f1 10 05 3f 10 3b 4d 3f 62 e0 75 3f 80 0a e2 bb
       0.51978976 0.8016825 0.96045506 -0.0068982244
0000e0 6c e0 0b 3f bb 0a 33 40 15 bf 97 3f 9e 63 9d 3f
       0.54639316 2.79753 1.1855189 1.2296026
0000f0 9e 21 98 3e e6 53 95 3f 2c 5e 19 3f 34 99 1f 3f
       0.29713148 1.1666229 0.5990932 0.62343144

deepleaf/conv2_block1_0_bn/FusedBatchNormV31 f4 [64]
000000 5e 90 9a 3f 35 8d f9 3f 57 8c 19 3f ab 39 e4 3e
       1.2075307 1.9496218 0.59979767 0.44575247
000010 5b ab 0a 40 4e 0d b0 3f b3 aa dd 3f cf 4f b1 3f
       2.1667087 1.375406 1.7317718 1.3852481
000020 d8 95 d6 3f a7 dc 0f 40 9a c1 c0 3f 55 ad 05 3e
       1.6764479 2.2478426 1.5059083 0.13054402
000030 60 15 ff 3e f6 7a 65 3f 86 fa 1d 3f 9e 47 f5 3f
       0.49820995 0.8964075 0.61710393 1.9162481
000040 67 e9 fa 3f c7 9a 36 40 3f bc 29 3e b1 ea 22 3f
       1.9602479 2.8531969 0.16575716 0.6363936
000050 e9 8a a5 3f d9 00 3a 40 a5 27 34 40 7d 6e 96 3e
       1.2933017 2.9063017 2.8149197 0.2938117
000060 b9 8a 2b 3e 9b 7e 74 3f de b1 0b 3e fd da ca 3e
       0.16752137 0.95505685 0.1364207 0.396202
000070 ce 7a 21 40 4e 67 a5 3f 2f c8 6c 3f 8d f1 35 3f
       2.5231204 1.2922151 0.92492956 0.710717
000080 16 dc 07 3f 0b 03 29 40 af 51 ce 3f 26 3a 3c 3f
       0.530702 2.6408107 1.6118678 0.7352623
000090 61 13 91 3e fc 18 c1 41 76 cf 0c 3e b2 98 00 40
       0.28335097 24.1372 0.13751015 2.0093198
0000a0 1b f0 c5 3e ce d0 7f 3e 45 e9 59 3f 15 f5 a9 40
       0.38659748 0.24981996 0.85121566 5.3111672
0000b0 e1 1c 02 3f ab 3d f4 3e fc 4c f7 3e 35 81 67 40
       0.50825316 0.477033 0.48300922 3.6172612
0000c0 16 0a df 3d f3 32 96 3f 28 7d 93 3e 60 fb 09 3f
       0.108905956 1.1734298 0.28806424 0.5389919
0000d0 70 f3 2f 3f 0d 2b 2a 40 ac a3 85 3f 28 fa 6d 3f
       0.6873083 2.6588776 1.0440574 0.92959833
0000e0 7b 40 11 40 b0 79 0e 3e ef 23 65 3e f6 e5 39 3f
       2.2695606 0.13913608 0.22376989 0.7261652
0000f0 c5 ca 0a 40 c8 3f 2e 40 4e a9 ed 3f 5c 82 6b 40
       2.168626 2.722643 1.8567293 3.6798315

deepleaf/conv2_block1_0_bn/FusedBatchNormV3 f4 [64]
000000 e2 62 87 bf 9f f5 15 c0 be 0d 8a bf 15 df 86 bf
       -1.0577052 -2.3431165 -1.0785444 -1.0536829
000010 5b db fb bf e1 c5 d6 bf 1a 32 08 c0 86 7d 0b c0
       -1.9676317 -1.6779138 -2.128058 -2.1795363
000020 7e dc 45 3f 6c 61 39 c0 e0 0b 9d bf 3e c2 41 bf
       0.7728957 -2.8965712 -1.2269249 -0.75687015
000030 02 84 a6 bf 1d 1b 8e bf 30 8a b3 bf 26 26 0a c0
       -1.3009036 -1.1102024 -1.4026546 -2.1585784
000040 6a 24 19 bf 5e 3b 4c c0 96 5b 8d bf 09 6c 9e bf
       -0.5982119 -3.1911235 -1.1043575 -1.237672
000050 21 6d 86 bf 8b 36 8a bf cb 26 35 c0 e0 07 51 bf
       -1.0502053 -1.0797895 -2.8304927 -0.8165264
000060 d6 1e 0e bf a8 e1 eb 3e 86 8c 77 bf 58 af 21 3e
       -0.555158 0.460706 -0.96698797 0.15789545
000070 65 ba 07 c0 f8 d5 ef bf 6d 7b 93 bf ef 67 c2 bf
       -2.1207516 -1.8737173 -1.1522042 -1.5187968
000080 ed 60 9c bf 70 45 99 bf 14 d4 b0 be 35 82 1c bf
       -1.2217079 -1.1974316 -0.34536803 -0.6113618
000090 ee 20 82 bf 41 31 c5 c1 64 e6 5b bf 3d ca 14 c0
       -1.0166299 -24.64905 -0.85898423 -2.3248436
0000a0 61 68 e0 be 9c c9 66 bf a4 0c ae bf fb 02 da c0
       -0.43829635 -0.9015138 -1.3597608 -6.812864
0000b0 8f ef a7 bf b1 fa 4e bf 71 e7 72 bf 57 c4 11 c0
       -1.3119982 -0.80851275 -0.948844 -2.2776086
0000c0 81 d6 40 bf ee 6a c8 bf 6f 51 69 bf 51 1a 94 be
       -0.75327307 -1.5657632 -0.9113988 -0.28926328
0000d0 e2 79 01 bf a5 54 fd bf 5a d8 9b bf 08 f9 8f bf
       -0.50576603 -1.9791456 -1.21754 -1.1247873
0000e0 96 5e 4c c0 11 fa 3f bf 05 c6 88 bf 16 d0 8a bf
       -3.193273 -0.74990946 -1.0685431 -1.0844753
0000f0 0c 8b 6b 3e 44 de 29 c0 89 9c 3c c0 0a c1 96 bf
       0.23002261 -2.654191 -2.9470541 -1.1777661

deepleaf/conv2_block1_1_conv/Conv2D i1 [48, 1, 1, 64]
000000 10 0e 1c 09 35 fd e7 eb 1b 1f e0 f3 04 22 e9 2b
       16 14 28 9 53 -3 -25 -21 27 31 -32 -13 4 34 -23 43
000010 15 ff 0b eb 2e 0e 0e 06 01 9c fc 04 dd 05 09 f6
       21 -1 11 -21 46 14 14 6 1 -100 -4 4 -35 5 9 -10
000020 e6 81 ae 1a fa 01 11 12 56 05 bc 9d 12 02 de cd
       -26 -127 -82 26 -6 1 17 18 86 5 -68 -99 18 2 -34 -51
000030 00 db 08 11 2f c3 ef 28 23 0f 09 ef 0d 01 d3 30
       0 -37 8 17 47 -61 -17 40 35 15 9 -17 13 1 -45 48
000040 06 f1 fd 09 2f fb 0c f8 f7 f3 ed 01 09 11 e6 1a
       6 -15 -3 9 47 -5 12 -8 -9 -13 -19 1 9 17 -26 26
000050 2d 00 d7 ee 35 f7 1e ed 0c b9 f1 ea 03 f5 06 13
       45 0 -41 -18 53 -9 30 -19 12 -71 -15 -22 3 -11 6 19
000060 ef dc 81 f0 f6 f7 11 e9 d8 e2 4a 00 f9 0b f3 13
       -17 -36 -127 -16 -10 -9 17 -23 -40 -30 74 0 -7 11 -13 19
000070 d4 0a f9 df d6 22 03 f3 d3 0e e6 ff ea 3f ee cd
       -44 10 -7 -33 -42 34 3 -13 -45 14 -26 -1 -22 63 -18 -51
000080 26 1d 06 10 e5 17 45 3f 12 08 24 e0 1b eb 29 43
       38 29 6 16 -27 23 69 63 18 8 36 -32 27 -21 41 67
000090 cc c7 17 31 e6 01 a8 19 0c 1f f7 0e 7f 0d 37 05
       -52 -57 23 49 -26 1 -88 25 12 31 -9 14 127 13 55 5
0000a0 71 0c fa 22 f2 fd f7 ef 29 f0 d1 16 ff 17 4e fd
       113 12 -6 34 -14 -3 -9 -17 41 -16 -47 22 -1 23 78 -3
0000b0 14 e2 0a 12 1f 0f 2a 01 19 12 02 24 f2 31 3c 1c
       20 -30 10 18 31 15 42 1 25 18 2 36 -14 49 60 28
0000c0 3b 18 1d fe d3 dc 4b 48 06 f9 2e df 16 dc 29 39
       59 24 29 -2 -45 -36 75 72 6 -7 46 -33 22 -36 41 57
0000d0 d9 ba 00 56 c5 01 a3 11 08 1d 14 f2 7f 14 23 ef
       -39 -70 0 86 -59 1 -93 17 8 29 20 -14 127 20 35 -17
0000e0 5b 1f 0d 23 d1 10 fb fd 16 dd e2 19 e5 07 42 f6
       91 31 13 35 -47 16 -5 -3 22 -35 -30 25 -27 7 66 -10
0000f0 04 d5 fe 12 23 1f 22 12 23 16 09 11 0f f0 4d 26
       4 -43 -2 18 35 31 34 18 35 22 9 17 15 -16 77 38

deepleaf/conv2_block1_1_bn/FusedBatchNormV3 f4 [48]
000000 ed 35 1f 40 4c 69 74 3e 6f 64 de bf 42 44 cc bf
       2.4876664 0.23868293 -1.73744 -1.5958331
000010 31 57 1f 40 68 bb 40 40 da ae 2e 3f 12 d1 86 3e
       2.4896967 3.0114384 0.6823555 0.26331383
000020 68 22 ff bf 5b 77 1e 40 43 59 4c 3f c4 0a 31 be
       -1.9932375 2.4760349 0.798237 -0.17289263
000030 5e db 9f bf 34 9f 3e 40 16 4b 81 3f b4 1a 2f 40
       -1.248882 2.978467 1.010104 2.7360048
000040 c2 2f df 3e 66 ff f5 3f 5f a3 50 40 45 72 52 bf
       0.43591124 1.9218566 3.2599714 -0.8220561
000050 68 08 e6 3f a2 69 0c be a8 d6 68 bf ce 2e 0a 40
       1.7971315 -0.1371217 -0.9095254 2.1591067
000060 18 65 23 bf 0b 5b 67 3e 60 7b 2d 40 e8 cf ee bf
       -0.6382613 0.22593324 2.7106552 -1.8657198
000070 2a 16 a4 bf 26 99 ed bf c7 bb df bf 9d 4a 8e 3f
       -1.2819264 -1.8562362 -1.747918 1.111652
000080 17 c3 aa bf 30 98 b9 bf 3a 97 54 bf fe 15 c7 bd
       -1.3340787 -1.4499569 -0.83043253 -0.097209916
000090 93 ea 96 bf 3b 5e c6 bf 2d fd 55 bf 40 af da 3f
       -1.1790336 -1.5497507 -0.8358944 1.7084732
0000a0 d4 2a 01 40 c1 02 8c 3f 4a 05 d7 bf 0e e3 ba bf
       2.018239 1.093834 -1.6798489 -1.4600542
0000b0 6c 82 b1 bd 14 77 21 40 f7 5c 7b 3f 0e ae cc 3f
       -0.08667454 2.522893 0.9818873 1.5990617

deepleaf/conv2_block1_2_conv/Conv2D i1 [12, 3, 3, 48]
000000 1e 05 e1 ef 12 47 1d 18 c3 0c e1 d1 c0 54 2e 3c
       30 5 -31 -17 18 71 29 24 -61 12 -31 -47 -64 84 46 60
000010 f8 f4 43 b6 ec f4 9b e8 95 16 08 d5 ee c9 b5 06
       -8 -12 67 -74 -20 -12 -101 -24 -107 22 8 -43 -18 -55 -75 6
000020 e0 b3 b2 fc f8 a1 d2 47 2b e4 31 a8 ed dd e6 fc
       -32 -77 -78 -4 -8 -95 -46 71 43 -28 49 -88 -19 -35 -26 -4
000030 30 0d 05 f5 ff 2f 0c 09 dd 06 10 ca e0 0a 21 11
       48 13 5 -11 -1 47 12 9 -35 6 16 -54 -32 10 33 17
000040 f3 f6 19 ca 29 fa c9 fe 81 04 3a eb f6 bf a1 1f
       -13 -10 25 -54 41 -6 -55 -2 -127 4 58 -21 -10 -65 -95 31
000050 cc cc ce 10 de b0 cd 52 5c 10 1e b9 e9 e4 0f 07
       -52 -52 -50 16 -34 -80 -51 82 92 16 30 -71 -23 -28 15 7
000060 28 09 e1 eb e9 ef f5 1a d3 d5 2a e9 08 d6 e6 da
       40 9 -31 -21 -23 -17 -11 26 -45 -43 42 -23 8 -42 -26 -38
000070 00 24 f2 f5 3f 05 ee 15 aa 0e 11 c2 23 e6 bc 0d
       0 36 -14 -11 63 5 -18 21 -86 14 17 -62 35 -26 -68 13
000080 e5 c7 ed 17 c9 de e7 2e 0d f1 2c c8 15 14 13 0b
       -27 -57 -19 23 -55 -34 -25 46 13 -15 44 -56 21 20 19 11
000090 2d 03 e2 f2 12 07 fd f8 eb 12 2f b0 ce f1 cc 0a
       45 3 -30 -14 18 7 -3 -8 -21 18 47 -80 -50 -15 -52 10
0000a0 d9 00 e2 ad 15 f0 d9 29 b4 dd 35 e6 d4 d9 bc e9
       -39 0 -30 -83 21 -16 -39 41 -76 -35 53 -26 -44 -39 -68 -23
0000b0 00 b6 be e4 14 b5 b4 fa 07 23 23 ca df 08 03 f2
       0 -74 -66 -28 20 -75 -76 -6 7 35 35 -54 -33 8 3 -14
0000c0 e6 08 08 0a 11 ee e1 e3 04 03 e7 ad f1 c9 e7 05
       -26 8 8 10 17 -18 -31 -29 4 3 -25 -83 -15 -55 -25 5
0000d0 d0 c5 e8 be e8 f1 04 dc a1 d4 11 f8 da d1 c9 d9
       -48 -59 -24 -66 -24 -15 4 -36 -95 -44 17 -8 -38 -47 -55 -39
0000e0 da d0 c6 e2 e0 de a9 e9 f8 1a 0b c3 c0 b8 cd b7
       -38 -48 -58 -30 -32 -34 -87 -23 -8 26 11 -61 -64 -72 -51 -73
0000f0 2b ff c8 d0 2d 3e f7 c2 d4 ff f5 c9 db 04 09 19
       43 -1 -56 -48 45 62 -9 -62 -44 -1 -11 -55 -37 4 9 25

deepleaf/conv5_block8_2_conv/Conv2D f4 [12]
000000 00 00 00 00 00 00 00 00 00 00 00 00 00 00 00 00
       0.0 0.0 0.0 0.0
000010 00 00 00 00 00 00 00 00 00 00 00 00 00 00 00 00
       0.0 0.0 0.0 0.0
000020 00 00 00 00 00 00 00 00 00 00 00 00 00 00 00 00
       0.0 0.0 0.0 0.0

deepleaf/conv2_block2_0_bn/FusedBatchNormV31 f4 [76]
000000 52 2b 84 3f f8 92 b4 3f 6c 2e 6d 3f e6 03 0f 3f
       1.032572 1.4107351 0.9264896 0.55865324
000010 ef 43 ea 3e 93 c9 19 40 64 b4 c3 3f f5 19 c4 3f
       0.45754954 2.402928 1.5289426 1.5320421
000020 a9 7f a0 3f df f5 42 40 c9 6e 7f 3f 3f 46 27 40
       1.2538959 3.0462568 0.9977842 2.6136625
000030 49 21 2c 3f 29 74 89 3f 40 96 c3 3e 08 5b 8b 3f
       0.6723829 1.0738574 0.3820057 1.0887156
000040 37 f8 c7 3f c0 3e 74 40 62 ff 00 3f 17 97 0f 3f
       1.5622624 3.81633 0.50389683 0.5608992
000050 1c cc 32 3f 21 e4 5f 3f 6f 0f 70 40 2f 36 b6 3f
       0.69842696 0.8745747 3.750942 1.4235286
000060 68 54 c2 3d 79 a7 6a 3c eb 3e 8a 3f 1a 9a d7 3e
       0.094887555 0.014322155 1.0800451 0.42109758
000070 45 ba a3 3f 04 6d 07 3f 53 1c 91 3e c4 d0 1d 3f
       1.279122 0.5290072 0.28341922 0.61646676
000080 b6 b6 35 3e e2 59 2e 40 ec 04 e1 3f 50 51 24 3e
       0.1774548 2.724236 1.7579627 0.16046643
000090 4c f2 c1 3e 45 87 3f 42 c8 16 15 3e 76 b2 dd 3f
       0.3788017 47.8821 0.14559472 1.7320087
0000a0 a1 ce da 3e de 5c 02 40 21 d8 95 3f 38 81 9a 40
       0.4273577 2.0369182 1.1706582 4.828274
0000b0 d7 10 a5 3e a0 a5 ee 3f 00 98 f2 3d b7 d3 4a 40
       0.3223941 1.8644295 0.11845398 3.169172
0000c0 de 12 c4 3d f5 e2 a4 3f 22 f0 d2 3f 15 40 a1 3f
       0.09573911 1.2881762 1.6479533 1.2597681
0000d0 86 95 5a 3a bd e9 7e 40 df 16 0c 3e 0b f0 68 3f
       0.0008338321 3.9830163 0.136806 0.90991277
0000e0 5f a7 5e 40 3d d4 1a 3e 76 e3 df 3f 97 d3 05 3e
       3.4789655 0.15120025 1.749129 0.13068996
0000f0 e4 57 26 3f 5e a7 2f 40 d1 09 14 40 0b 64 56 40
       0.6497786 2.7445903 2.3130991 3.3498561
000100 b7 58 bc 3d a3 9e 22 3d 0d a5 3a 3d 6f 4a 1a 3b
       0.091966085 0.03970207 0.04556756 0.00235429
000110 f3 e2 a7 3c 06 bf b7 3d 46 08 64 3d 73 bd de 3c
       0.02049396 0.08971982 0.055671953 0.027189946
000120 64 f1 8d 3c f6 2f 2e 3d 48 38 7a 3d ee f2 d3 3d
       0.017327018 0.042526208 0.06108883 0.103490695

deepleaf/conv2_block2_0_bn/FusedBatchNormV3 f4 [76]
000000 2c fe 2b bf 22 8d ff bf 50 85 c6 bf 26 fb a7 bf
       -0.6718471 -1.9964945 -1.5509434 -1.312352
000010 d2 73 eb be b5 3e 16 c0 47 a1 03 c0 22 30 ce bf
       -0.459868 -2.3475773 -2.0567186 -1.6108439
000020 a0 f2 43 be e8 af ba bf 70 0c c0 be 0f 82 7e c0
       -0.19135523 -1.4584932 -0.3750949 -3.9766881
000030 0a df b6 bf fa b5 cc bf 4d 0f 89 bf b6 9d 77 bf
       -1.4286816 -1.5993035 -1.0707794 -0.9672502
000040 f1 e4 bf bf cf ad a7 c0 7c b0 85 bf ee 66 d2 bf
       -1.4991742 -5.239967 -1.0444484 -1.6437662
000050 60 73 a7 bf fc ca 7d 3e 04 8a a1 c0 ae e3 d2 bf
       -1.3082085 0.24784464 -5.0480976 -1.6475732
000060 3f 0f aa be 5d da 61 be 60 be d3 bf 05 b7 14 3f
       -0.33214757 -0.22055955 -1.6542473 0.58091766
000070 b0 7a e6 be 82 08 a6 bf d4 1d 2b bf 67 97 80 bf
       -0.45015478 -1.2971346 -0.6684239 -1.0046204
000080 db a7 78 bf 31 a2 36 c0 ad 16 12 c0 0e 54 25 bf
       -0.9713113 -2.8536494 -2.282634 -0.6458138
000090 30 cc cf bf 2e d2 3e c2 e2 1e 50 bf fa 6e 08 c0
       -1.6234188 -47.705254 -0.81297123 -2.1317735
0000a0 06 ae 5e bf 4b fc 13 c0 18 de d6 bf 92 10 77 c0
       -0.8698429 -2.3122737 -1.6786528 -3.8603864
0000b0 4c 95 91 bf 7f 51 06 c0 6c 61 1d bf 80 1b c6 bf
       -1.1373687 -2.0987241 -0.6147678 -1.5477142
0000c0 40 aa 2c bf 58 9f f6 bf 9e 2e 07 c0 30 fd a4 be
       -0.6744728 -1.9267378 -2.1122203 -0.32224417
0000d0 9f 03 e7 bd 9e 62 e2 bf e1 af 73 bf 0b 0b 83 bf
       -0.112799875 -1.7686346 -0.95190245 -1.0237745
0000e0 67 8c 76 c0 c1 b2 7a bf 43 e7 f4 bf fe 4a 44 bf
       -3.8523195 -0.97929007 -1.9133075 -0.7667693
0000f0 83 ff 77 bf c5 07 62 c0 6e 02 cf bf cf 90 0f c0
       -0.96874255 -3.5317242 -1.6172616 -2.2432134
000100 09 e6 ed 3f 71 3a 97 3e a4 12 56 be 34 5e 60 bf
       1.8585826 0.29536775 -0.20905548 -0.8764374
000110 05 63 41 bf f6 97 31 40 59 dd cc bf 82 86 fe bf
       -0.75541717 2.7749 -1.600505 -1.9884799
000120 43 7c d2 be 6e a4 81 3f b0 0e 77 3f 2f 3f 19 40
       -0.4111043 1.0128305 0.96506786 2.3944814

deepleaf/conv2_block2_1_conv/Conv2D i1 [48, 1, 1, 76]
000000 e7 e1 f9 04 0c e3 cd d8 d8 d5 d2 04 06 10 08 c8
       -25 -31 -7 4 12 -29 -51 -40 -40 -43 -46 4 6 16 8 -56
000010 fe fe ea ee ec 14 04 17 f1 0e db ed 0f f7 15 11
       -2 -2 -22 -18 -20 20 4 23 -15 14 -37 -19 15 -9 21 17
000020 fd 10 ec 0b 01 12 f5 f6 f2 db 05 de f1 12 09 e3
       -3 16 -20 11 1 18 -11 -10 -14 -37 5 -34 -15 18 9 -29
000030 fa fd 05 e6 15 e0 f5 16 fb 00 11 f9 00 0b c6 16
       -6 -3 5 -26 21 -32 -11 22 -5 0 17 -7 0 11 -58 22
000040 f2 e4 e9 f8 08 81 eb f0 16 f2 17 15 e4 2b 09 fa
       -14 -28 -23 -8 8 -127 -21 -16 22 -14 23 21 -28 43 9 -6
000050 e6 28 3d 05 25 b3 fd 0b c2 fc ef 1e e8 0b 05 15
       -26 40 61 5 37 -77 -3 11 -62 -4 -17 30 -24 11 5 21
000060 1e f0 f0 cc 13 d4 f9 a9 22 03 22 e3 01 17 16 13
       30 -16 -16 -52 19 -44 -7 -87 34 3 34 -29 1 23 22 19
000070 08 bc 29 00 0b ef ea fe 06 c7 ff 06 f8 06 b8 e5
       8 -68 41 0 11 -17 -22 -2 6 -57 -1 6 -8 6 -72 -27
000080 22 81 fa c5 f4 f2 dc 12 14 f1 b8 29 23 fb 16 e0
       34 -127 -6 -59 -12 -14 -36 18 20 -15 -72 41 35 -5 22 -32
000090 fa fd 22 04 e2 fa e3 2c 0e b8 b0 20 ef 08 dd eb
       -6 -3 34 4 -30 -6 -29 44 14 -72 -80 32 -17 8 -35 -21
0000a0 2c 75 ed 85 e4 dd ff cd 25 c2 f2 10 c4 21 99 be
       44 117 -19 -123 -28 -35 -1 -51 37 -62 -14 16 -60 33 -103 -66
0000b0 fd e8 e5 67 0d f0 05 4d 05 c5 ee 01 e2 f3 fe 4d
       -3 -24 -27 103 13 -16 5 77 5 -59 -18 1 -30 -13 -2 77
0000c0 20 ef 09 60 fa d3 fa b4 0c 9e 18 6c 20 f0 e8 c0
       32 -17 9 96 -6 -45 -6 -76 12 -98 24 108 32 -16 -24 -64
0000d0 d9 0f 40 ff 02 bb 7f 38 41 2d ac f2 08 1a 29 f3
       -39 15 64 -1 2 -69 127 56 65 45 -84 -14 8 26 41 -13
0000e0 13 cc 29 f7 d6 3e eb ee fe f0 eb d7 b8 ed dd 41
       19 -52 41 -9 -42 62 -21 -18 -2 -16 -21 -41 -72 -19 -35 65
0000f0 07 df fa a5 0d 4c 16 b9 0e 8e 36 14 fe d0 1d de
       7 -33 -6 -91 13 76 22 -71 14 -114 54 20 -2 -48 29 -34

deepleaf/conv2_block2_1_bn/FusedBatchNormV3 f4 [48]
000000 ad ba 6e 3f 07 ef 2f 40 62 7a b6 bf ba b2 5c 3f
       0.93253595 2.748964 -1.4256098 0.86210215
000010 50 c2 81 40 6e 91 39 3f 80 a0 d3 3e 15 e3 9d 3f
       4.05497 0.72487533 0.4133339 1.2334925
000020 c8 92 d2 bf 5a 90 8b bf aa cf e0 3f be cf e0 bf
       -1.6451044 -1.0903428 1.7563374 -1.7563398
000030 65 78 dc 3f 2b 96 e2 bf 08 17 e4 bf e8 06 52 3f
       1.7224241 -1.7702078 -1.7819529 0.8204179
000040 ab 6f cc 40 1b 40 39 40 cb f2 83 bf 10 2d 96 bf
       6.3886313 2.8945377 -1.030847 -1.1732502
000050 a0 2b 10 c0 4e e4 bf be 2c 36 37 bf de 18 9c 3f
       -2.2526627 -0.3747887 -0.71567035 1.2195089
000060 c8 8b bc bf 9a 01 11 c0 46 ef f0 be dd 33 b3 bf
       -1.4730158 -2.2657228 -0.4705755 -1.4000202
000070 9a d7 88 bf 16 b5 11 bd 40 c6 31 bf 6c 48 a8 3f
       -1.0690796 -0.035573088 -0.6944313 1.3147101
000080 b2 99 dd bf 8f 48 ec bf 5e 4e 01 3f 33 2a 9c bf
       -1.7312529 -1.8459643 0.50510204 -1.2200378
000090 af 0c ad bf fb f2 ae bf a4 1a 2d 40 33 69 3b 40
       -1.3519496 -1.3667902 2.704751 2.9282959
0000a0 70 a7 bf bf 8a e9 8a be 89 22 d9 3e 7a 23 42 c0
       -1.4972973 -0.271313 0.4240916 -3.0334153
0000b0 28 fa c1 3f b6 b9 bb bf 72 fa 1e bf 9e a1 4a 3f
       1.5154467 -1.466605 -0.621009 0.7915286

deepleaf/conv2_block2_2_conv/Conv2D i1 [12, 3, 3, 48]
000000 2d 4e d4 42 2c 6c 9b 68 b4 d2 b6 e1 72 9f b9 d8
       45 78 -44 66 44 108 -101 104 -76 -46 -74 -31 114 -97 -71 -40
000010 59 eb 0b d4 e2 d7 4d 52 94 b6 fb bd cc db e4 4e
       89 -21 11 -44 -30 -41 77 82 -108 -74 -5 -67 -52 -37 -28 78
000020 a4 aa 13 8c d9 ae 22 13 93 bf d5 f7 66 e9 b4 54
       -92 -86 19 -116 -39 -82 34 19 -109 -65 -43 -9 102 -23 -76 84
000030 19 60 ce 22 1d 3e cc 51 b0 e5 b3 23 44 db be 16
       25 96 -50 34 29 62 -52 81 -80 -27 -77 35 68 -37 -66 22
000040 32 cf bd 31 e7 b7 0b 26 bf c0 12 c0 a2 1d d8 2b
       50 -49 -67 49 -25 -73 11 38 -65 -64 18 -64 -94 29 -40 43
000050 e0 d1 2f b1 c8 f6 21 aa a2 01 ae e8 34 e0 90 72
       -32 -47 47 -79 -56 -10 33 -86 -94 1 -82 -24 52 -32 -112 114
000060 1a 41 bd 1b 1e 2c e1 27 ab f3 bb 19 23 c2 c4 3a
       26 65 -67 27 30 44 -31 39 -85 -13 -69 25 35 -62 -60 58
000070 25 00 d3 2d dc d7 e1 22 a5 df 28 c7 af 1f e1 17
       37 0 -45 45 -36 -41 -31 34 -91 -33 40 -57 -81 31 -31 23
000080 e6 c9 64 b0 cc e7 fa bf 96 13 b3 cd 1c d4 81 4a
       -26 -55 100 -80 -52 -25 -6 -65 -106 19 -77 -51 28 -44 -127 74
000090 1f 66 d8 1b e5 34 8f 42 11 e4 ae 07 3f ee 07 f7
       31 102 -40 27 -27 52 -113 66 17 -28 -82 7 63 -18 7 -9
0000a0 1d b7 13 14 e6 e2 48 5c e3 22 f9 16 07 0c 07 20
       29 -73 19 20 -26 -30 72 92 -29 34 -7 22 7 12 7 32
0000b0 d4 eb e5 a4 09 fc 07 d3 f1 07 d0 09 2e e9 ea 28
       -44 -21 -27 -92 9 -4 7 -45 -15 7 -48 9 46 -23 -22 40
0000c0 2a 31 ee 0d bd fb d9 2a 40 29 b6 61 23 17 2a 3b
       42 49 -18 13 -67 -5 -39 42 64 41 -74 97 35 23 42 59
0000d0 ea be db 68 e3 f8 fa 5a 32 45 19 26 f6 5f e8 07
       -22 -66 -37 104 -29 -8 -6 90 50 69 25 38 -10 95 -24 7
0000e0 e2 43 11 de 0d 3d 09 99 06 3c ad 3e 20 09 fc 2a
       -30 67 17 -34 13 61 9 -103 6 60 -83 62 32 9 -4 42
0000f0 31 17 ea 17 da 0b f1 20 fd 0a f2 37 2a cd ef 3f
       49 23 -22 23 -38 11 -15 32 -3 10 -14 55 42 -51 -17 63

deepleaf/conv2_block3_0_bn/FusedBatchNormV31 f4 [88]
000000 12 34 8c 3f d2 c3 c5 3f 4d 25 77 3f 76 cb dd 3f
       1.0953391 1.5450385 0.9654129 1.7327716
000010 16 71 95 3f e0 17 15 40 5d 87 b0 3f b0 2b e4 3f
       1.1675136 2.3295822 1.379131 1.7825832
000020 0d 5c d8 3f 45 07 88 40 64 b7 8a 3f 30 b3 04 40
       1.6903092 4.2508874 1.0837216 2.0734367
000030 e1 99 54 3f eb 06 f6 3d 77 9d 11 3f 46 1a b1 3f
       0.830473 0.12013038 0.568809 1.3836143
000040 27 c5 9b 3f 9e a3 d7 3f 72 d9 61 3e a4 af 89 3f
       1.2169541 1.6846807 0.22055605 1.0756726
000050 f0 53 a0 3f 46 b9 09 40 31 00 3a 40 7a f4 af 3e
       1.2525616 2.1519332 2.9062617 0.34366208
000060 3f ea 84 3f 14 8a 0a 3f 51 3d 74 3f 5e df e3 3e
       1.0383986 0.5411694 0.9540606 0.44506353
000070 54 3c e0 3f 27 cf bd 3e 82 39 10 3f d1 a7 4f 3d
       1.7518411 0.37072107 0.5633775 0.05069715
000080 4e 5b 88 3f c1 32 1a 40 2a b0 d8 3f 01 9a 27 3f
       1.0652864 2.4093478 1.6928761 0.65469366
000090 d8 de a6 3e 7d 95 1f 42 1a 1d b5 3f fa dd a0 3f
       0.3259189 39.895985 1.4149506 1.2567742
0000a0 5f 6c 91 3e 33 34 9d 3f ed 65 a7 3e 3a 15 05 40
       0.28402993 1.2281555 0.3269495 2.0794206
0000b0 97 e4 b6 3d ae a2 98 3f 0b 67 87 3f a7 1e 80 40
       0.08930319 1.1924646 1.0578321 4.0037417
0000c0 d8 82 c1 3d f3 e4 a8 3f 31 5c b6 3f d2 61 6b 3f
       0.094487846 1.319487 1.4246885 0.91946137
0000d0 69 cb a0 3e d1 6f 31 3d 43 a4 c4 3f a5 fc 59 3f
       0.3140519 0.043319527 1.5362629 0.8515113
0000e0 13 6b 83 40 44 d3 2c 3e 0e d0 dc 3f f3 9f 21 3f
       4.1068206 0.16877466 1.7250993 0.6313469
0000f0 e3 4a 31 41 52 a9 e6 3f 17 3d 9a 3f ed 65 4e 40
       11.080783 1.8020422 1.2049893 3.224971
000100 d6 da 22 3d 58 00 73 3d 43 0c 99 3d 20 bf 23 3d
       0.03975948 0.0593265 0.07473042 0.039977193
000110 64 8f 2b 3d 5c 9b bb 3d a5 5c 98 3d e4 32 cc 3b
       0.041884795 0.09160492 0.074395455 0.0062316526
000120 96 ba 1f 3d 56 c1 61 3d 1f 36 f6 3b f8 4f f1 3c
       0.0389963 0.05511602 0.007513776 0.029457077
000130 1a 80 c0 3d e5 f2 f1 3d 3e 1d 80 3b 31 dd 14 3e
       0.093994334 0.118139066 0.003909736 0.14537503
000140 2d 6e 0c 3d d1 91 ae 3d cc cd 9b 3d 45 48 07 3d
       0.03428476 0.08523906 0.07607612 0.033027906
000150 aa a2 8f 3c f8 85 01 3d df 71 33 3d 19 94 5f 3d
       0.017533619 0.031621903 0.043809768 0.054584596

deepleaf/conv2_block3_0_bn/FusedBatchNormV3 f4 [88]
000000 ca a2 a9 bf 34 b2 dd bf 52 2a 4f bf 14 53 0d c0
       -1.3252804 -1.7320008 -0.8092395 -2.2081957
000010 c4 1d e8 be 22 45 01 c0 0a dd e2 bf 2c 90 bd bf
       -0.4533521 -2.0198445 -1.7723706 -1.4809623
000020 fe 44 a4 bf c0 53 35 c0 b4 67 e2 bf 2b fc 32 c0
       -1.2833555 -2.8332367 -1.7687898 -2.796641
000030 22 c8 b3 bf 68 7f 30 bf 15 d4 b2 bf 39 4a b4 bf
       -1.4045451 -0.68944407 -1.3970972 -1.4085151
000040 ce e8 6e bf 60 e2 30 c0 2e 95 a2 bf fb 8f 7e bf
       -0.9332398 -2.7638168 -1.2701776 -0.99438447
000050 95 08 d0 bf c6 a3 d7 bf 13 63 68 c0 2f 33 81 bf
       -1.6252619 -1.6846855 -3.631047 -1.0093745
000060 0c bb ac bf 06 83 3d bf f2 fd 82 bf 58 58 21 3e
       -1.3494582 -0.7402805 -1.0233748 0.15756357
000070 40 32 89 bf fb 3c 7e bf e0 25 79 bf 06 85 6c bf
       -1.071846 -0.993118 -0.9732342 -0.9239048
000080 39 76 39 bf 38 18 4d c0 49 00 fe bf 48 51 99 be
       -0.7244602 -3.2046032 -1.9843837 -0.29944825
000090 0a 60 b2 bf 99 a0 20 c2 91 73 a7 bf e5 d0 ec bf
       -1.3935559 -40.156834 -1.3082143 -1.850125
0000a0 22 06 a2 bf 20 b3 fc bf e3 a8 9c bf 38 cb 15 c0
       -1.2658122 -1.9742165 -1.223904 -2.3405285
0000b0 91 9c 51 bf 70 aa 7a bf be 1c 4b bf 86 25 f9 bf
       -0.81879526 -0.97916317 -0.7934073 -1.9464576
0000c0 08 9a 44 bf 02 0c db bf 01 5b 0a c0 a4 0c e3 be
       -0.76797533 -1.711304 -2.1618044 -0.44345582
0000d0 d8 e2 8f bf d1 e6 d4 be c0 18 ca bf 74 b0 79 bf
       -1.1241102 -0.4158235 -1.5788803 -0.9753487
0000e0 c2 9f 9c c0 78 9d 84 bf 31 d3 03 c0 ad 01 be bf
       -4.8945017 -1.0360556 -2.059765 -1.4844261
0000f0 c5 56 5f bf 0f 78 1f c0 b8 eb 13 c0 19 53 35 c0
       -0.87241775 -2.4917028 -2.3112621 -2.8331969
000100 23 a3 b7 3e dc 42 cb bd e8 70 8e bd 97 aa 25 bf
       0.3586665 -0.09924862 -0.06955129 -0.64713424
000110 84 6a 10 bf 47 3a d5 3f 2c b4 e1 bf c6 16 a9 bf
       -0.5641253 1.665841 -1.7633109 -1.3210075
000120 a3 bb f6 3e df fd 6e 3f 6f b9 81 bf 70 a2 81 3f
       0.4819003 0.93356127 -1.0134715 1.0127697
000130 9c bc 85 3f d8 32 66 3d 07 df 5b bf 92 ec e8 3e
       1.0448184 0.056200832 -0.8588719 0.4549299
000140 e3 fb 2b bf d4 81 a0 3f 37 f5 b8 bf 54 9c 68 bf
       -0.67181224 1.253962 -1.4449834 -0.9086354
000150 ca 1f 68 bf 6b 2c 83 be c0 30 f5 3d 18 aa a4 bf
       -0.90673506 -0.25619826 0.11972189 -1.2864408

deepleaf/conv2_block3_1_conv/Conv2D i1 [48, 1, 1, 88]
000000 f5 ff 05 0a df 27 0a 0a e7 81 25 1f ef fc 06 22
       -11 -1 5 10 -33 39 10 10 -25 -127 37 31 -17 -4 6 34
000010 f9 16 09 25 1c 03 0b f6 04 33 f1 ed 02 fe e5 01
       -7 22 9 37 28 3 11 -10 4 51 -15 -19 2 -2 -27 1
000020 11 11 25 fb 30 ef f8 fd 1e e1 05 02 f5 e6 01 f8
       17 17 37 -5 48 -17 -8 -3 30 -31 5 2 -11 -26 1 -8
000030 04 30 f2 13 0a 04 05 ff e4 07 18 04 cf e2 0e f2
       4 48 -14 19 10 4 5 -1 -28 7 24 4 -49 -30 14 -14
000040 0d 9e 03 08 09 e5 da f1 04 09 03 2c 06 ef 08 f6
       13 -98 3 8 9 -27 -38 -15 4 9 3 44 6 -17 8 -10
000050 de ee dd fd 06 e9 13 e8 ee b1 db f7 e2 0b fa 30
       -34 -18 -35 -3 6 -23 19 -24 -18 -79 -37 -9 -30 11 -6 48
000060 f5 dd dc 81 e7 e2 02 19 e2 ea 00 2b 14 f8 be da
       -11 -35 -36 -127 -25 -30 2 25 -30 -22 0 43 20 -8 -66 -38
000070 2c 0f e8 f4 df 03 f1 00 fc 16 1b e9 d3 eb 30 fa
       44 15 -24 -12 -33 3 -15 0 -4 22 27 -23 -45 -21 48 -6
000080 c7 d3 ed be f3 f3 d6 fe fb c1 c9 bb 0f d6 fa b9
       -57 -45 -19 -66 -13 -13 -42 -2 -5 -63 -55 -69 15 -42 -6 -71
000090 b9 fe 0a 22 ca 02 dc 2b 08 e6 08 2a e3 16 e8 fe
       -71 -2 10 34 -54 2 -36 43 8 -26 8 42 -29 22 -24 -2
0000a0 05 12 23 f9 e2 f4 0e ca da d8 f7 c3 14 cd 22 ff
       5 18 35 -7 -30 -12 14 -54 -38 -40 -9 -61 20 -51 34 -1
0000b0 b5 ce 81 cc 57 ae 24 d2 4d 60 ff e3 fd ff 13 e8
       -75 -50 -127 -52 87 -82 36 -46 77 96 -1 -29 -3 -1 19 -24
0000c0 4c ce 01 10 f0 0f d3 04 c9 46 d5 4f ef f4 13 f7
       76 -50 1 16 -16 15 -45 4 -55 70 -43 79 -17 -12 19 -9
0000d0 e2 25 0c 27 22 f4 2c c3 41 f1 28 e8 f1 18 d4 e5
       -30 37 12 39 34 -12 44 -61 65 -15 40 -24 -15 24 -44 -27
0000e0 11 c3 ff 40 28 fc 96 b1 e7 f3 de 4f b7 10 e0 b9
       17 -61 -1 64 40 -4 -106 -79 -25 -13 -34 79 -73 16 -32 -71
0000f0 e4 be c2 e8 0f 00 c2 ef 1b 04 1d 14 8c de fb 0b
       -28 -66 -62 -24 15 0 -62 -17 27 4 29 20 -116 -34 -5 11

deepleaf/conv2_block3_1_bn/FusedBatchNormV3 f4 [48]
000000 9f 11 00 40 7c 70 4c 3f dd a6 a8 be 0d 0b ea be
       2.0010755 0.7985914 -0.32939807 -0.45711556
000010 20 7c 02 3e 97 bf af 3f fc 2b e6 bf a2 17 5c bf
       0.12742662 1.3730344 -1.7982173 -0.8597356
000020 28 f6 b1 bf f6 ef 8e 3f c8 dc 1f c0 7a b1 18 bf
       -1.3903246 1.116698 -2.4978504 -0.5964581
000030 98 c3 77 bf a8 f3 a7 3e 90 56 b3 bf 8e 8b 00 40
       -0.9678283 0.32803082 -1.4010792 2.0085177
000040 a3 03 58 3f f1 81 f7 be bf 10 88 3f d8 5b c3 3f
       0.8438055 -0.48341325 1.063011 1.5262403
000050 23 c0 99 3e 5e a5 bd bf c5 e2 f1 bf 19 f0 06 3f
       0.300294 -1.4816091 -1.889733 0.5271011
000060 14 40 b3 bf b9 f5 05 40 96 c2 54 bf ac 5a 10 40
       -1.400393 2.0931227 -0.83109415 2.2555342
000070 e5 7d 9f bf 72 74 68 3f 60 ba 86 3e 23 63 b1 3f
       -1.2460295 0.9080268 0.26314068 1.3858379
000080 ec 2f 45 3f 50 10 11 c0 00 12 5e 3b 74 68 89 3e
       0.7702625 -2.2666206 0.003388524 0.26837504
000090 e3 a0 a6 be d0 1d f9 bf 85 ae 3f 40 9a 1e 80 3f
       -0.32544622 -1.9462223 2.9950268 1.0009339
0000a0 be f1 a4 be ec 1a 03 40 c4 a5 03 40 2c 59 a8 3f
       -0.32215685 2.0485182 2.0569925 1.3152213
0000b0 c8 94 67 3f 3e db 47 40 3c e4 4d be 0a a6 56 40
       0.904614 3.1227565 -0.20106596 3.3538842

deepleaf/conv2_block3_2_conv/Conv2D i1 [12, 3, 3, 48]
000000 d7 06 f9 dd eb f6 d8 e7 00 f2 e3 24 ee 17 20 f9
       -41 6 -7 -35 -21 -10 -40 -25 0 -14 -29 36 -18 23 32 -7
000010 ce f8 c0 ca 31 fd 04 33 ea e7 d9 2f e3 02 2f 12
       -50 -8 -64 -54 49 -3 4 51 -22 -25 -39 47 -29 2 47 18
000020 ec d9 49 28 fc c2 ba 15 fb 25 e8 04 ee cd 13 ef
       -20 -39 73 40 -4 -62 -70 21 -5 37 -24 4 -18 -51 19 -17
000030 97 e8 fc d6 c1 de 07 16 37 b7 fd 3a 0e 22 26 e5
       -105 -24 -4 -42 -63 -34 7 22 55 -73 -3 58 14 34 38 -27
000040 cb 01 97 ef 49 1c 1b 3c 0c 22 dd 43 e8 1a 5e 39
       -53 1 -105 -17 73 28 27 60 12 34 -35 67 -24 26 94 57
000050 d7 ea 4b 3f 08 e0 81 ff 17 39 b0 fd ac 85 0a 1d
       -41 -22 75 63 8 -32 -127 -1 23 57 -80 -3 -84 -123 10 29
000060 ed fb e6 01 f0 f1 f7 2d 15 d6 f2 1f 18 39 cc de
       -19 -5 -26 1 -16 -15 -9 45 21 -42 -14 31 24 57 -52 -34
000070 ff fa fc 31 1c ea 14 02 f3 27 d6 37 13 28 37 38
       -1 -6 -4 49 28 -22 20 2 -13 39 -42 55 19 40 55 56
000080 fb df 29 0f 35 d9 d4 dd bd 34 f0 02 ef d8 24 21
       -5 -33 41 15 53 -39 -44 -35 -67 52 -16 2 -17 -40 36 33
000090 f3 1c fe e9 1a e8 fa 27 2b f0 06 16 14 e1 0b d8
       -13 28 -2 -23 26 -24 -6 39 43 -16 6 22 20 -31 11 -40
0000a0 f1 00 07 bb ff 1e 1c 0f fc bd 0e 02 1c f9 ef e8
       -15 0 7 -69 -1 30 28 15 -4 -67 14 2 28 -7 -17 -24
0000b0 fe 04 1c 19 26 f4 f3 fe 10 ea 12 fe 1a 05 21 d5
       -2 4 28 25 38 -12 -13 -2 16 -22 18 -2 26 5 33 -43
0000c0 f2 03 f2 e3 13 eb fc 4e 5e de 0f 27 3e c9 0b c0
       -14 3 -14 -29 19 -21 -4 78 94 -34 15 39 62 -55 11 -64
0000d0 13 fc 0c ec 11 4a 1b 12 35 b8 12 fc 2a f1 11 f4
       19 -4 12 -20 17 74 27 18 53 -72 18 -4 42 -15 17 -12
0000e0 03 08 30 2d 16 00 f8 d6 16 dc 12 f6 1e 05 2b bc
       3 8 48 45 22 0 -8 -42 22 -36 18 -10 30 5 43 -68
0000f0 0e 03 e5 1c 12 e4 07 39 39 cf 1c 2d 34 f3 cc a9
       14 3 -27 28 18 -28 7 57 57 -49 28 45 52 -13 -52 -87

deepleaf/pool2_bn/FusedBatchNormV31 f4 [100]
000000 df 55 11 3f 57 98 0d 40 c8 39 c2 3f 74 4c 60 3f
       0.56771654 2.212423 1.5173883 0.8761666
000010 88 ca 1a 40 b1 46 96 3f 4d c8 ed 3f 12 2f a9 3f
       2.4186115 1.1740323 1.8576752 1.321749
000020 a6 11 97 3f 14 fa 58 40 3c 3e b6 3f 10 47 0d 40
       1.1802261 3.3902636 1.4237742 2.2074623
000030 0c d4 90 3f 0c 03 4b 3f 61 b5 01 3f 87 96 e1 3f
       1.1314712 0.79301524 0.5066739 1.7624062
000040 8b 0b f6 3f 58 3c 32 40 de b1 97 3f 86 ec 3f 3f
       1.9222273 2.784933 1.1851156 0.7497028
000050 78 6c e4 3f ad 44 a3 3f 5a c5 41 40 ce 2b a9 3f
       1.7845602 1.2755333 3.0276704 1.3216493
000060 a0 4e ac 3f f1 d6 14 3f 7c 33 7a 3f e3 69 d0 3e
       1.3461494 0.58140475 0.9773481 0.40705785
000070 74 0c 14 40 b4 ad 38 3f 2c 28 9c 3f 55 12 1b 3f
       2.31326 0.7214005 1.219976 0.6057485
000080 4b ff 72 3f de 9c f2 3f 6a 0c a9 3f c2 37 cb 3f
       0.94920796 1.8954122 1.3206913 1.5876391
000090 03 cb e6 3e 9b 51 83 3f f2 4b 49 3f c4 10 8f 3f
       0.4507676 1.0259279 0.7863151 1.1176991
0000a0 6e ab 81 3e 1f 85 ac 3f 00 80 87 3f 6a db 3e 40
       0.25326103 1.3478125 1.0585938 2.982142
0000b0 c3 ea 38 3f dd 41 e7 3f e0 1b 88 3f fa 97 4f 40
       0.7223322 1.8066975 1.0633507 3.243651
0000c0 31 ab 3e 3f 4e df b1 3f 1f e8 8f 3f 1c 46 52 3f
       0.7447997 1.3896272 1.1242713 0.8213823
0000d0 f5 0f b3 3e 75 a2 64 40 56 55 a3 3f d1 62 5c 3f
       0.34973112 3.5724156 1.2760417 0.8608828
0000e0 d1 c4 84 40 09 30 fc 3e 23 87 00 40 6d 27 69 3f
       4.1490254 0.49255398 2.008248 0.91075784
0000f0 f3 a9 29 41 3c de 7a 40 27 83 f6 3f 18 b3 1e 40
       10.6039915 3.919814 1.9258775 2.479681
000100 ae 34 27 3d be a4 c2 3d 98 ac 2b 3d 89 9c 2d 3d
       0.040821724 0.09504078 0.041912645 0.04238561
000110 f1 f4 57 3d f7 20 e8 3d 10 4e 93 3d 23 fb 16 3d
       0.05272383 0.113344125 0.071926236 0.036860596
000120 ac 38 68 3d d4 21 82 3d 32 b9 a2 3d 6d c9 b9 3d
       0.05669467 0.063541085 0.079454795 0.09071622
000130 8b fc 87 3d 30 e3 dd 3d c7 ab 40 3d ae 07 1d 3e
       0.066399656 0.10834348 0.04703882 0.15334961
000140 72 f3 1b 3d 1c 39 c7 3d 8e e8 12 3d fe 88 48 3d
       0.038073964 0.097276896 0.035866313 0.04895877
000150 58 67 b5 3d 56 9a 4d 3d ca 1a 95 3d 28 ac 34 3d
       0.08857602 0.050196014 0.072805 0.044109493
000160 dd 26 4c 3e b8 ba a7 3d 7c dd be 3d af 3c 9d 3d
       0.199367 0.08189911 0.093195885 0.0767759
000170 20 af f9 3d be c5 96 3d 73 72 fa 3d 32 b6 30 3e
       0.121916056 0.07361935 0.12228861 0.17257002
000180 70 6c 9b 3d f6 dd ed 3d 20 69 e4 3d 8b f1 78 3d
       0.07589042 0.11614601 0.111528635 0.06077723

deepleaf/pool2_bn/FusedBatchNormV3 f4 [100]
000000 ca ef aa bf 21 45 85 bf 2f e3 6b bf c4 f3 8a bf
       -1.3354428 -1.0411721 -0.9214353 -1.0855641
000010 22 51 fe bf f3 eb 7f bf b4 86 a6 bf f0 70 0e bf
       -1.986851 -0.99969405 -1.3009858 -0.5564108
000020 d8 f0 3b bf 2e f2 76 c0 41 52 50 bf bc e6 99 bf
       -0.73414373 -3.8585315 -0.8137551 -1.202354
000030 12 cc ab bf 56 6d 6f bf 1e 54 aa bf 67 9d 92 bf
       -1.3421652 -0.9352621 -1.330692 -1.1454285
000040 46 68 8e bf 72 ed 0a c0 f1 f9 88 bf 53 fd a0 bf
       -1.1125572 -2.1707425 -1.0701276 -1.2577308
000050 66 2b 92 bf 56 10 55 bf 23 8a dd bf e6 12 b1 bf
       -1.1419494 -0.8322805 -1.7307781 -1.3833892
000060 ef 94 6f bf 8c e3 94 bf 78 cf 5e bf b8 47 00 bf
       -0.9358663 -1.1631942 -0.8703532 -0.50109434
000070 c3 2b 9f bf 1a 51 7a bf 7a d5 f0 be 0c 7b 59 bf
       -1.243523 -0.9778 -0.4703787 -0.8495338
000080 dc 41 c5 bf 3f b3 03 c0 f4 d5 c0 bf 0a 51 a6 bf
       -1.5410724 -2.0578153 -1.5065293 -1.2993481
000090 d3 e5 57 bf ee 4c c2 bf 63 0f 9e bf c8 d2 df bf
       -0.8433506 -1.5179727 -1.2348446 -1.74862
0000a0 58 51 3d bf 7c c7 b4 bf 3d d0 69 bf e8 13 48 c0
       -0.73952246 -1.4123378 -0.9133337 -3.126215
0000b0 be 8a a3 bf 52 28 99 bf 1c bb ae bf 21 97 48 c0
       -1.2776716 -1.196543 -1.3650851 -3.1342242
0000c0 4d c4 89 bf c5 de 8d bf f7 fa ab bf a1 16 86 bf
       -1.0763031 -1.1083609 -1.3435963 -1.0475656
0000d0 6a 7c 7d bf ba e5 4d c0 7a 2d 84 bf 20 82 46 bf
       -0.99017966 -3.2171464 -1.0326378 -0.77542305
0000e0 49 5e 86 c0 50 3a 8c bf f0 2f f6 bf ba 05 f1 be
       -4.1990094 -1.0955296 -1.9233379 -0.47074682
0000f0 b0 dd af bf 9f 6f 5e c0 9c 89 d0 bf 12 b2 ea bf
       -1.3739529 -3.4755628 -1.6291995 -1.8335593
000100 8c 8e 76 3e 0c c1 f3 bd 32 33 92 be 81 5a 6a bf
       0.24077815 -0.11902055 -0.28554684 -0.9154435
000110 d0 48 ee be 8e 9c c9 3f f4 97 bd bf f0 b8 ef bf
       -0.46539927 1.5750902 -1.4811997 -1.8728313
000120 7d 7b 3f 3f af 5c 9c 3f 97 1e 9b 3f 3c 8b 2a 40
       0.74797803 1.2215785 1.211871 2.6647482
000130 e4 35 89 bd da 01 2d bf 53 30 49 bf 36 b4 c6 be
       -0.06699732 -0.6758095 -0.7858936 -0.38809365
000140 bd f3 93 bf e6 0d ad be c4 53 7e bf ba ad 58 bf
       -1.1558758 -0.33799666 -0.99346566 -0.84640086
000150 4c 5f 05 3f ae c3 f4 3e 18 7c a0 3e 93 6d a5 bf
       0.52098536 0.47805542 0.31344676 -1.2924064
000160 46 4a 20 3f c0 8e 9c bd 5a 5e c0 be 2f ee 62 bf
       0.6261333 -0.07644415 -0.37571985 -0.8864469
000170 1e 45 9f 3f 96 53 b3 bf 16 a0 63 3f a3 a2 2b 3f
       1.2442968 -1.4009883 0.88916147 0.6704504
000180 2e b2 c0 bf ab 0e 15 bf c9 3b a0 bf cf 0e 32 bf
       -1.5054376 -0.58225507 -1.2518245 -0.69553846

deepleaf/pool2_conv/Conv2D1 i1 [50, 1, 1, 100]
000000 dc 3e d0 00 f6 e7 1a 07 09 12 0b 6d f7 27 ff 3c
       -36 62 -48 0 -10 -25 26 7 9 18 11 109 -9 39 -1 60
000010 11 57 ee 26 05 04 7f fa 02 fd f9 03 01 e6 50 08
       17 87 -18 38 5 4 127 -6 2 -3 -7 3 1 -26 80 8
000020 f4 02 04 ee 46 fb fb dd d6 04 f8 12 f7 db f0 25
       -12 2 4 -18 70 -5 -5 -35 -42 4 -8 18 -9 -37 -16 37
000030 08 59 02 0f e9 f7 dc 07 09 f0 05 e7 d3 d7 16 ff
       8 89 2 15 -23 -9 -36 7 9 -16 5 -25 -45 -41 22 -1
000040 27 e3 fa fc 01 df db ed 01 10 31 19 ee 0b ad 08
       39 -29 -6 -4 1 -33 -37 -19 1 16 49 25 -18 11 -83 8
000050 98 fc f5 fb 1d da 05 0f 18 f6 fb ed 15 f6 0e 04
       -104 -4 -11 -5 29 -38 5 15 24 -10 -5 -19 21 -10 14 4
000060 d7 f2 f4 e3 05 fc 1d e0 e9 fd f6 03 09 95 05 19
       -41 -14 -12 -29 5 -4 29 -32 -23 -3 -10 3 9 -107 5 25
000070 d3 02 0b 06 2a f8 f5 07 f8 04 00 b6 01 29 05 ed
       -45 2 11 6 42 -8 -11 7 -8 4 0 -74 1 41 5 -19
000080 00 10 f4 d9 fb 24 1d e4 36 e4 02 e2 f4 1a 09 f3
       0 16 -12 -39 -5 36 29 -28 54 -28 2 -30 -12 26 9 -13
000090 fe d5 10 81 0d 04 d2 eb 1a 30 25 eb ec e3 ec fe
       -2 -43 16 -127 13 4 -46 -21 26 48 37 -21 -20 -29 -20 -2
0000a0 f6 cc 06 17 ec d5 36 23 08 07 ef f6 1b 26 12 0d
       -10 -52 6 23 -20 -43 54 35 8 7 -17 -10 27 38 18 13
0000b0 f1 ae 13 cc fc 01 da c9 26 0e 1c d2 fb e8 ec f5
       -15 -82 19 -52 -4 1 -38 -55 38 14 28 -46 -5 -24 -20 -11
0000c0 f9 16 cb c1 dc f4 10 17 24 e9 cf 10 43 aa ab fa
       -7 22 -53 -63 -36 -12 16 23 36 -23 -49 16 67 -86 -85 -6
0000d0 c2 44 a1 fb 08 10 d6 bd fa 04 9e e6 3d e7 08 19
       -62 68 -95 -5 8 16 -42 -67 -6 4 -98 -26 61 -25 8 25
0000e0 81 3e ec de e5 d7 c1 1b 11 f8 f1 2a 19 07 1d f1
       -127 62 -20 -34 -27 -41 -63 27 17 -8 -15 42 25 7 29 -15
0000f0 26 b8 3a b7 17 27 01 04 3e 00 f9 0b 3f cf e3 08
       38 -72 58 -73 23 39 1 4 62 0 -7 11 63 -49 -29 8

deepleaf/pool2_conv/Conv2D f4 [50]
000000 00 00 00 00 00 00 00 00 00 00 00 00 00 00 00 00
       0.0 0.0 0.0 0.0
000010 00 00 00 00 00 00 00 00 00 00 00 00 00 00 00 00
       0.0 0.0 0.0 0.0
000020 00 00 00 00 00 00 00 00 00 00 00 00 00 00 00 00
       0.0 0.0 0.0 0.0
000030 00 00 00 00 00 00 00 00 00 00 00 00 00 00 00 00
       0.0 0.0 0.0 0.0
000040 00 00 00 00 00 00 00 00 00 00 00 00 00 00 00 00
       0.0 0.0 0.0 0.0
000050 00 00 00 00 00 00 00 00 00 00 00 00 00 00 00 00
       0.0 0.0 0.0 0.0
000060 00 00 00 00 00 00 00 00 00 00 00 00 00 00 00 00
       0.0 0.0 0.0 0.0
000070 00 00 00 00 00 00 00 00 00 00 00 00 00 00 00 00
       0.0 0.0 0.0 0.0
000080 00 00 00 00 00 00 00 00 00 00 00 00 00 00 00 00
       0.0 0.0 0.0 0.0
000090 00 00 00 00 00 00 00 00 00 00 00 00 00 00 00 00
       0.0 0.0 0.0 0.0
0000a0 00 00 00 00 00 00 00 00 00 00 00 00 00 00 00 00
       0.0 0.0 0.0 0.0
0000b0 00 00 00 00 00 00 00 00 00 00 00 00 00 00 00 00
       0.0 0.0 0.0 0.0
0000c0 00 00 00 00 00 00 00 00
       0.0 0.0

deepleaf/conv3_block1_0_bn/FusedBatchNormV31 f4 [50]
000000 18 0d 51 3e 2c e4 55 3e a4 4e 4e 3e 94 a2 43 3e
       0.20415151 0.20887822 0.20147187 0.19104987
000010 4c 47 34 3e f8 28 a6 3e dd 36 29 3e 8f fc 98 3e
       0.17605323 0.32453132 0.16524835 0.29880187
000020 0b cc 7a 3e c1 0b 01 3e fe 83 95 3e 6b 54 2c 3e
       0.24491899 0.1260214 0.29202265 0.16829078
000030 cc 7a 7b 3e 6e cc 24 3e 45 c2 9e 3d d7 bf b9 3d
       0.24558562 0.16093609 0.07751898 0.09069794
000040 d2 16 12 3e 8c ea 32 3e c9 f3 1e 3e 91 73 4b 3e
       0.14266518 0.17472285 0.15522684 0.19868304
000050 db 08 42 3e a6 e5 63 3e 1b 2f 4a 3d 67 68 80 3e
       0.1894869 0.22255573 0.04936133 0.25079653
000060 9e 8a 4f 3e b0 ea e0 3d 11 d1 8c 3e f9 c6 56 3e
       0.20267722 0.10982263 0.27503255 0.2097434
000070 42 09 94 3c 72 76 ae 3e f7 e4 ea 3d f9 8e 3e 3e
       0.01807082 0.34074742 0.11469453 0.18609227
000080 4d 87 25 3e 8b 74 80 3d 22 7b 8f 3d e7 2e 4d 3e
       0.16164894 0.06272229 0.070059076 0.20037423
000090 4c b5 84 3e 10 cc 49 3e 14 0e 4c 3e 8b c6 81 3e
       0.2591957 0.1970675 0.19927245 0.2534679
0000a0 d7 97 fe 3d 5e 21 96 3e e4 07 36 3e cb 4c 46 3e
       0.12431305 0.29322332 0.17776448 0.19365232
0000b0 ec cd 2a 3e b9 89 77 3e 28 30 ef 3d 87 cf 67 3e
       0.16680115 0.24173631 0.11679107 0.22637759
0000c0 43 85 90 3c 4c 64 1b 3e
       0.01764167 0.15174979

deepleaf/conv3_block1_0_bn/FusedBatchNormV3 f4 [50]
000000 70 ad 1f bf b2 6f 42 3f b0 59 23 3f 1a 65 fc 3e
       -0.6237402 0.75951684 0.6380873 0.49295884
000010 06 60 3e 3f 92 17 a0 3f 52 a2 a8 bf 5d 8f 63 3f
       0.7436527 1.2507193 -1.3174536 0.8889063
000020 1c 05 d2 bf c6 cf 08 c0 b2 48 cb 3e 83 1a f3 bf
       -1.6407809 -2.1376815 0.397039 -1.8992466
000030 9c 94 82 bf c8 cf 86 3d 84 69 5f bd 5d 77 13 bf
       -1.0201602 0.065826 -0.054543987 -0.5760401
000040 b0 f4 46 be d6 92 1d c0 ac e3 71 bf 3e fb d9 3f
       -0.19429278 -2.4620872 -0.94488025 1.7029798
000050 96 3d f7 3f 48 e3 35 3e da e1 4c bf e1 79 f5 3f
       1.931567 0.17762482 -0.8003212 1.917782
000060 da e3 30 3f 62 51 02 bf 50 67 54 3f 7a 67 db 3e
       0.69097674 -0.5090543 0.8297014 0.42852384
000070 7a 4a 40 bf 76 ba 88 40 1c 83 2d be 6e 2e de bf
       -0.7511364 4.2727613 -0.16944546 -1.7357919
000080 d8 22 b1 bf 80 72 07 3c f8 53 53 be e2 99 1e 3f
       -1.3838758 0.008267045 -0.206375 0.61953557
000090 34 c0 68 3f 64 42 c8 bd 96 e9 6e bf 40 c8 0f 3d
       0.9091828 -0.09778288 -0.93325174 0.035103083
0000a0 69 19 19 be 7d 4d 82 3f d6 35 cf 3f 21 8f 88 be
       -0.149511 1.0179898 1.6188304 -0.266717
0000b0 68 0a 93 bd a5 63 a9 3f aa ee cf 3e aa fe 01 be
       -0.07179719 1.3233534 0.40611774 -0.12694803
0000c0 6f 63 4f bf dc 98 63 be
       -0.810111 -0.2222628

deepleaf/conv3_block1_1_conv/Conv2D i1 [48, 1, 1, 50]
000000 d6 0a 18 2e d5 f9 08 e1 e2 1f cb e4 dd 19 36 2c
       -42 10 24 46 -43 -7 8 -31 -30 31 -53 -28 -35 25 54 44
000010 1e 05 31 07 08 eb 0b 31 0c 0b f9 3d 11 2e 01 26
       30 5 49 7 8 -21 11 49 12 11 -7 61 17 46 1 38
000020 fe 04 f8 fa 0b 1f e3 7f 20 93 10 2d e7 03 f7 0c
       -2 4 -8 -6 11 31 -29 127 32 -109 16 45 -25 3 -9 12
000030 17 1d 06 d9 81 27 f6 85 d1 fc c4 12 fd 25 e9 f7
       23 29 6 -39 -127 39 -10 -123 -47 -4 -60 18 -3 37 -23 -9
000040 fd fd 05 ec 1e f1 fc 23 ec 16 3a 0e 2c 07 f9 23
       -3 -3 5 -20 30 -15 -4 35 -20 22 58 14 44 7 -7 35
000050 04 29 16 10 e1 dc f1 0f ee 47 ea f1 ac e7 fc 04
       4 41 22 16 -31 -36 -15 15 -18 71 -22 -15 -84 -25 -4 4
000060 1a c1 00 33 28 81 59 e2 b7 47 3d 69 9a 15 01 13
       26 -63 0 51 40 -127 89 -30 -73 71 61 105 -102 21 1 19
000070 6a f1 c9 f6 ba e2 38 eb 00 28 01 0f 49 46 e8 38
       106 -15 -55 -10 -70 -30 56 -21 0 40 1 15 73 70 -24 56
000080 cb c4 eb fb da fa a0 d2 05 e4 32 a7 fe 2d 29 47
       -53 -60 -21 -5 -38 -6 -96 -46 5 -28 50 -89 -2 45 41 71
000090 32 e6 24 21 f8 a7 04 e0 88 1e dc 81 a0 b2 c4 06
       50 -26 36 33 -8 -89 4 -32 -120 30 -36 -127 -96 -78 -60 6
0000a0 00 f9 d3 0a 39 f8 1c f3 47 f8 f7 ed e1 0a 4f fc
       0 -7 -45 10 57 -8 28 -13 71 -8 -9 -19 -31 10 79 -4
0000b0 f5 12 da f8 17 25 01 08 f3 ea ed e2 03 47 ec c7
       -11 18 -38 -8 23 37 1 8 -13 -22 -19 -30 3 71 -20 -57
0000c0 c0 cb ca f1 13 93 11 64 cc c7 19 0b ef 1c 36 32
       -64 -53 -54 -15 19 -109 17 100 -52 -57 25 11 -17 28 54 50
0000d0 e4 15 1a 20 e6 81 fc d1 d7 c8 19 f1 b6 ee 08 3f
       -28 21 26 32 -26 -127 -4 -47 -41 -56 25 -15 -74 -18 8 63
0000e0 31 25 3c f9 fa 1a 54 b2 f2 25 e1 d7 f5 e2 07 59
       49 37 60 -7 -6 26 84 -78 -14 37 -31 -41 -11 -30 7 89
0000f0 f7 e9 c0 cc b1 e8 d7 f7 1e 2d 11 fc 12 10 ff 3a
       -9 -23 -64 -52 -79 -24 -41 -9 30 45 17 -4 18 16 -1 58

deepleaf/conv3_block1_1_bn/FusedBatchNormV3 f4 [48]
000000 1e 32 b2 bf d8 2f 28 3f e5 16 11 bf 63 87 29 3f
       -1.3921545 0.65698004 -0.5667556 0.6622221
000010 18 46 0a be f8 1c 6d bf 82 85 15 3f 6f 97 8e 3f
       -0.13503301 -0.9262233 0.5840684 1.1139964
000020 1e f0 bf bf 4d 48 45 3f e6 d7 bd 3e 06 23 16 c0
       -1.4995153 0.7706345 0.3707878 -2.3458877
000030 93 91 07 3f 64 29 a9 bd ae e4 08 bf 7f c9 e9 3e
       0.52956504 -0.08259848 -0.5347394 0.45661542
000040 34 d4 74 3f 8a 8d 61 3f b3 c5 f1 bf b4 5e f9 3f
       0.95636296 0.88106596 -1.8888458 1.9482026
000050 c3 92 2b 3f f0 98 65 bd d1 06 0b 3f fa 47 9d bf
       0.67020816 -0.056054056 0.54307276 -1.228759
000060 e5 0c 45 3f 20 a0 a2 bf 31 b9 af be bd f7 93 3f
       0.769728 -1.2705116 -0.34320977 1.1559979
000070 ec 0c 10 3e 0c 68 27 40 5e bf 6e be ee ba 48 bf
       0.1406743 2.6157255 -0.23315188 -0.7841023
000080 a2 ad 9a bf 87 6a 26 be f2 de 3c bf b8 d3 a2 bf
       -1.2084239 -0.16251574 -0.7377769 -1.2720861
000090 cc b8 ad 3e 97 96 0e 3f 91 8a c8 be 65 c5 de 3e
       0.3393005 0.5569853 -0.39168218 0.43509975
0000a0 94 18 9c 3f 20 5e 39 3d 86 1d d4 bf 4e 20 21 40
       1.2195001 0.04525578 -1.657151 2.5175967
0000b0 31 dc b0 be 7e 75 dd bf fc 86 bf bf 41 ec 04 40
       -0.34542993 -1.7301481 -1.4963069 2.0769198

deepleaf/conv3_block1_2_conv/Conv2D i1 [12, 3, 3, 48]
000000 b8 03 08 06 ec f4 f6 15 d2 d4 c0 cb cd d1 fc e8
       -72 3 8 6 -20 -12 -10 21 -46 -44 -64 -53 -51 -47 -4 -24
000010 0c 5f cd fe 0e d2 f4 02 fa cd 0e 04 2c eb a6 df
       12 95 -51 -2 14 -46 -12 2 -6 -51 14 4 44 -21 -90 -33
000020 22 e7 f0 1a 14 00 42 ed de d3 05 00 f3 0d ea fa
       34 -25 -16 26 20 0 66 -19 -34 -45 5 0 -13 13 -22 -6
000030 d8 08 fa 0f db f3 fc 17 da e0 b4 cd bb e1 3b f0
       -40 8 -6 15 -37 -13 -4 23 -38 -32 -76 -51 -69 -31 59 -16
000040 02 5b c0 0a 07 d8 00 0e 19 b3 19 fd 04 00 8a e9
       2 91 -64 10 7 -40 0 14 25 -77 25 -3 4 0 -118 -23
000050 11 e1 05 1d 0d 09 3f ea f1 ce 02 03 06 fd d3 0e
       17 -31 5 29 13 9 63 -22 -15 -50 2 3 6 -3 -45 14
000060 c9 03 f3 0a fe e4 ff 12 d7 e3 b1 cf c4 c9 1c fe
       -55 3 -13 10 -2 -28 -1 18 -41 -29 -79 -49 -60 -55 28 -2
000070 03 3b c8 03 fc d8 12 f7 fd ce 0d 01 f6 0e b3 da
       3 59 -56 3 -4 -40 18 -9 -3 -50 13 1 -10 14 -77 -38
000080 f0 f8 08 0a 09 f9 39 f5 e8 d1 11 06 ff d6 af 09
       -16 -8 8 10 9 -7 57 -11 -24 -47 17 6 -1 -42 -81 9
000090 b6 ff fa f2 ef e3 f6 e2 dc df a7 dc c3 e4 41 d9
       -74 -1 -6 -14 -17 -29 -10 -30 -36 -33 -89 -36 -61 -28 65 -39
0000a0 f1 27 e0 17 ec dd 14 e4 2b ce eb f4 18 0b a2 f2
       -15 39 -32 23 -20 -35 20 -28 43 -50 -21 -12 24 11 -94 -14
0000b0 14 e4 1a fa 07 17 0c df 00 d7 ec 06 d7 1c f6 15
       20 -28 26 -6 7 23 12 -33 0 -41 -20 6 -41 28 -10 21
0000c0 cc 13 ed 0e fa e2 fb d5 f6 f3 a9 07 aa 16 3c bf
       -52 19 -19 14 -6 -30 -5 -43 -10 -13 -87 7 -86 22 60 -65
0000d0 f4 17 eb 1d fa 05 09 c4 16 ed d0 05 24 0f c1 d7
       -12 23 -21 29 -6 5 9 -60 22 -19 -48 5 36 15 -63 -41
0000e0 f4 b6 1a f9 0e 19 e7 ca 11 b1 d6 0e a7 04 df 13
       -12 -74 26 -7 14 25 -25 -54 17 -79 -42 14 -89 4 -33 19
0000f0 c2 05 15 0e fc ee fb fa e4 b7 a7 cb c7 cc 28 f6
       -62 5 21 14 -4 -18 -5 -6 -28 -73 -89 -53 -57 -52 40 -10

deepleaf/conv3_block2_0_bn/FusedBatchNormV31 f4 [62]
000000 49 11 aa 3e 83 d4 82 3e c6 ae b3 3d bc 01 7c 3e
       0.33216313 0.2555276 0.0877357 0.24610037
000010 df 6d d6 3d b3 4d 63 3e 73 7f 86 3e fe 28 49 3e
       0.10470175 0.22197609 0.2626911 0.19644544
000020 5f a5 3b 3e 3f 6e 4c 3e 61 5a 31 3e 1b 4b c4 3d
       0.18324803 0.1996393 0.17319633 0.09584638
000030 0c 51 12 3e 29 ac 33 3e d8 c0 90 3e ae 2d 02 3e
       0.1428873 0.17546143 0.28272128 0.12712738
000040 2a 8b 27 3e 1c 0e 42 3e b1 f8 59 3e ab 9a 41 3e
       0.1636168 0.18950695 0.21286274 0.18906657
000050 7d f4 15 3e d8 ab 2b 3e 7f f6 09 3e 10 02 4d 3e
       0.14644046 0.16764772 0.13472937 0.20020318
000060 ce fc ad 3d 74 21 80 3d 19 50 8b 3c 24 93 a2 3e
       0.08495484 0.06256381 0.017005967 0.31752884
000070 92 f1 4d 3e b3 9d 58 3e 81 ee 5c 3e 81 d2 ac 3e
       0.20111683 0.21153907 0.21575357 0.33754352
000080 7c 24 e7 3d 47 57 ea 3d a2 36 8c 3d ed 5a 54 3e
       0.11286256 0.11442428 0.06846358 0.2073781
000090 4e ef fc 3d 01 6b 8a 3e f0 f9 3a 3e ce b0 fd 3d
       0.12350331 0.27034763 0.18259406 0.123872384
0000a0 78 62 2f 3e b9 b5 c5 3e c5 43 63 3d 22 b1 4b 3e
       0.17127407 0.38615206 0.055484552 0.1989179
0000b0 14 d2 45 3e 52 ac 08 3e de 40 b5 3d 3f 0c 88 3e
       0.1931842 0.13346985 0.08850263 0.26571843
0000c0 04 94 99 3e bd 3a a7 3e 4d af e0 3c 9f ef c5 3d
       0.2999574 0.32662 0.02742734 0.09664845
0000d0 93 24 1f 3d f7 1e 9d 3d 2d de 97 3d cd 4b da 3b
       0.03885324 0.07671922 0.074154235 0.006661868
0000e0 9a 72 c1 3b d6 e1 bf 3c 8f 48 98 3b ac 74 f2 3d
       0.005903554 0.023423117 0.0046473215 0.1183866
0000f0 94 58 89 3d 99 16 b8 3d
       0.06706348 0.08988685

deepleaf/conv3_block2_0_bn/FusedBatchNormV3 f4 [62]
000000 c7 b1 23 c0 fe a0 a3 3f a0 ba 34 bc 32 f8 d1 3f
       -2.5577257 1.2783506 -0.011030823 1.6403868
000010 80 76 44 bb 20 86 27 3f 6d 5e d8 bf f0 fd 68 3f
       -0.0029977858 0.65439034 -1.6903816 0.9101248
000020 ee fd e6 be d3 3a 68 c0 ac cd 4e 3e e8 fa df bf
       -0.45115608 -3.6285903 0.20195645 -1.7498446
000030 f9 29 38 bf 2c 49 da 3e ff 36 bc bf 86 92 89 bf
       -0.71939045 0.4263395 -1.4704283 -1.074784
000040 54 24 da 3d a0 0d 17 c0 82 b3 04 c0 f4 69 cf 3f
       0.1065146 -2.3602066 -2.0734563 1.6204209
000050 30 c3 c0 3d d8 da 26 3d 48 10 f7 bf 51 e8 d2 3f
       0.09412229 0.04073605 -1.9301844 1.6477147
000060 21 3d 57 be 23 8f 8d 3f 25 9c 19 bf 78 ee a7 3e
       -0.21019413 1.1059307 -0.6000388 0.32799125
000070 c6 74 35 bf 64 51 d3 3f fe 14 64 bf 67 6a 69 c0
       -0.7088131 1.6509213 -0.8909453 -3.6471193
000080 4e 7f b9 bf 13 8c 9e bf e0 9a ba bf 9a 31 d3 be
       -1.4491975 -1.2386497 -1.4578514 -0.4124878
000090 84 de 03 be 00 a8 33 3b cf 77 f1 be c0 2f 7c bf
       -0.12877852 0.0027413368 -0.4716172 -0.9851036
0000a0 b8 b7 0a 3d 80 5e cb 3f ac d0 69 bd 91 99 27 bf
       0.033866614 1.5888214 -0.05708377 -0.654687
0000b0 26 fc 8d 3f f1 1f 9b 3f 0b 38 98 be 76 0c 85 bf
       1.1092575 1.2119123 -0.29730257 -1.0394428
0000c0 40 e0 2a be 93 8f 18 be c0 58 47 bc c4 9b 72 3d
       -0.16687107 -0.14898519 -0.012167156 0.05923058
0000d0 c0 0b 03 40 c0 26 68 bf bb 2b 18 3f 34 ed 5d bf
       2.0475922 -0.9068413 0.5944173 -0.8669007
0000e0 06 04 2a bf 50 2d 36 3f 9b 7a 62 bf 16 cb ff 3f
       -0.6641239 0.7116289 -0.8846833 1.9983852
0000f0 92 09 80 3f be 75 a3 bd
       1.0002921 -0.07981442
