disease_classifier.tflite (tflite, 527240 bytes, 166 tensors)

deepleaf/conv1/conv/Conv2D i1 [64, 7, 7, 3]
3 0 -65 0 -4 -93 3 -4
-93 11 4 -23 16 4 -1 18
5 9 20 1 20 -4 -4 -97
0 -1 -117 0 -4 -122 10 5
-39 15 6 -2 11 -1 -5 13
-3 6 1 0 -91 -5 -3 -127
-2 -3 -126 11 5 -36 17 8
-9 9 -4 -12 8 -12 -9 6
8 -35 1 6 -58 6 7 -53
12 12 -2 19 17 19 12 7
8 11 -1 12 9 11 -14 8
14 -29 10 12 -29 13 14 4
12 8 10 8 2 5 3 -6
5 8 10 -18 -1 2 -43 6
5 -32 13 13 9 7 3 3
-2 -9 -11 -4 -14 -8 6 9
0 2 6 -29 4 5 -23 10
9 10 6 4 6 -4 -11 -8
-7 -18 -6 -23 8 0 -2 10
-13 9 -2 -24 8 -3 -19 6
-1 -14 -17 1 -4 -42 1 4
17 -4 -14 42 -6 -23 53 -22
-33 60 -20 -34 45 -20 -30 19
-16 -19 -7 -6 -2 43 -13 -24
65 -32 -44 98 -38 -45 107 -35
-44 88 -32 -41 47 -28 -28 21
-9 -13 50 -19 -30 92 -31 -43
116 -46 -54 127 -47 -53 109 -38
-41 66 -32 -37 31 -11 -16 42
-21 -27 81 -30 -34 103 -39 -44
112 -41 -45 99 -29 -34 68 -18
-21 26 -1 -12 17 -14 -15 40
00000000: 0300 bf00 fca3 03fc a30b 04e9 1004 ff12
00000010: 0509 1401 14fc fc9f 00ff 8b00 fc86 0a05
00000020: d90f 06fe 0bff fb0d fd06 0100 a5fb fd81
00000030: fefd 820b 05dc 1108 f709 fcf4 08f4 f706
00000040: 08dd 0106 c606 07cb 0c0c fe13 1113 0c07
00000050: 080b ff0c 090b f208 0ee3 0a0c e30d 0e04
00000060: 0c08 0a08 0205 03fa 0508 0aee ff02 d506
00000070: 05e0 0d0d 0907 0303 fef7 f5fc f2f8 0609
00000080: 0002 06e3 0405 e90a 090a 0604 06fc f5f8
00000090: f9ee fae9 0800 fe0a f309 fee8 08fd ed06
000000a0: fff2 ef01 fcd6 0104 11fc f22a fae9 35ea
000000b0: df3c ecde 2dec e213 f0ed f9fa fe2b f3e8
000000c0: 41e0 d462 dad3 6bdd d458 e0d7 2fe4 e415
000000d0: f7f3 32ed e25c e1d5 74d2 ca7f d1cb 6dda
000000e0: d742 e0db 1ff5 f02a ebe5 51e2 de67 d9d4
000000f0: 70d7 d363 e3de 44ee eb1a fff4 11f2 f128

deepleaf/conv1/bn/FusedBatchNormV3 f4 [64]
1.3142638 0.72646403 2.174574 1.8900845 1.0596929 0.94745624 0.33258402 1.742481
0.6281499 1.165721 0.65506303 1.085783 0.105113745 -0.70074767 0.15078562 0.6670299
1.5775827 1.3954479 -2.3077927 4.357041 0.7869587 0.9248934 1.4016207 0.54313534
0.36196065 1.3130758 -1.6471994 0.07965882 0.60491884 1.3885323 1.9134274 5.162115
2.0486636 0.7223522 0.92521906 2.1037376 0.8281166 0.9834099 1.0209153 1.7743816
4.4061885 1.517587 1.500066 1.6241177 -1.2595676 0.6311224 1.6739693 0.86315656
3.789667 1.4629533 0.027596176 1.3692406 1.1767083 0.71065724 1.5061343 -1.0896455
-0.030328572 3.411614 1.1628982 1.5153497 0.5812262 1.0668269 0.40657747 0.6441474
00000000: cc39 a83f 8cf9 393f 382c 0b40 4aee f13f
00000010: 04a4 873f 7e8c 723f 7448 aa3e 9e09 df3f
00000020: 6fce 203f 5936 953f 36b2 273f f0fa 8a3f
00000030: e045 d73d 3364 33bf 8c67 1a3e 79c2 2a3f
00000040: 3bee c93f 099e b23f e0b2 13c0 e16c 8b40
00000050: 2076 493f d0c5 6c3f 4f68 b33f eb0a 0b3f
00000060: e852 b93e de12 a83f 6ed7 d2bf 2a24 a33d
00000070: f6db 1a3f 6dbb b13f 30eb f43f 0c30 a540
00000080: 4e1d 0340 13ec 383f 28db 6c3f a3a3 0640
00000090: 73ff 533f c0c0 7b3f 5aad 823f f01e e33f
000000a0: 7fff 8c40 4a40 c23f 2a02 c03f 17e3 cf3f
000000b0: 8339 a1bf 3d91 213f a044 d63f d4f7 5c3f
000000c0: e789 7240 0e42 bb3f 6011 e23c 4743 af3f
000000d0: 619e 963f a2ed 353f 02c9 c03f 8179 8bbf
000000e0: a073 f8bc e257 5a40 d9d9 943f fbf6 c13f
000000f0: 3ecb 143f c98d 883f ec2a d03e d8e6 243f

deepleaf/conv2_block1_0_bn/FusedBatchNormV31 f4 [64]
1.3651824 2.134574 0.56889683 0.3717091 2.061205 1.2938771 1.8924581 1.3011197
1.7082195 2.082181 1.6286651 0.14761534 0.38371983 0.8985604 0.6374676 1.8239143
1.6458768 2.5619073 0.16808599 0.6310417 1.2331884 2.7977881 2.4778156 0.27244058
0.16864322 0.9258194 0.13106409 0.40600142 4.619198 1.2147841 0.9023966 0.6724931
0.76952416 2.642956 1.589115 0.6650276 0.3173323 24.232103 0.14173128 1.7166984
0.43636835 0.27356797 0.81946224 5.140396 0.4919473 0.2996412 0.672953 3.3587706
0.10436913 1.2606244 0.23369959 0.5805 0.6921634 2.5498147 1.3052815 0.91594416
1.6245048 0.12875715 0.21941984 0.6654005 1.2774881 2.2477188 1.8455341 3.716137
00000000: 4cbe ae3f dc9c 0840 39a3 113f a850 be3e
00000010: c8ea 0340 c49d a53f 113c f23f 178b a63f
00000020: f0a6 da3f 7442 0540 1978 d03f 7a28 173e
00000030: ed76 c43e 0e08 663f 1431 233f 0676 e93f
00000040: 17ac d23f 4af6 2340 bc1e 2c3e f38b 213f
00000050: 1ed9 9d3f f60e 3340 8894 1e40 557d 8b3e
00000060: cfb0 2c3e 8002 6d3f aa35 063e 6bdf cf3e
00000070: 78d0 9340 0c7e 9b3f 7703 673f 8228 2c3f
00000080: 89ff 443f 3126 2940 1f68 cb3f 403f 2a3f
00000090: 6179 a23e 59db c141 0122 113e c6bc db3f
000000a0: ac6b df3e 1a11 8c3e 47c8 513f 207e a440
000000b0: 84e0 fb3e 926a 993e a646 2c3f 19f6 5640
000000c0: 7cbf d53d 245c a13f f24e 6f3e a69b 143f
000000d0: 9f31 313f 2a30 2340 7713 a73f 517b 6a3f
000000e0: c6ef cf3f ead8 033e 98af 603e b057 2a3f
000000f0: bb84 a33f a0da 0f40 763a ec3f 30d5 6d40

deepleaf/conv2_block1_0_bn/FusedBatchNormV3 f4 [64]
-1.0670158 -2.53763 -0.99511373 -0.9550768 -1.9364992 -1.6237963 -2.3679893 -2.1536758
0.67475784 -2.6393328 -1.4308437 -0.78139037 -1.1544249 -1.0969039 -1.4326756 -2.1646104
-0.5956454 -2.7919476 -1.1021415 -1.2420137 -1.0373133 -1.0129992 -2.4151301 -0.788786
-0.55646425 0.46680534 -0.95887315 0.1162287 -2.0489736 -1.7075647 -1.2049836 -1.461891
-1.2027429 -1.2439692 -0.32421458 -0.56671965 -1.0415807 -24.745203 -0.8646011 -1.9760904
-0.5164727 -0.9189695 -1.365433 -6.6165347 -1.2650802 -0.73927927 -0.9375191 -1.8798878
-0.7521506 -1.6290996 -0.83205307 -0.24912205 -0.5324747 -1.8663864 -1.2396123 -1.046082
-2.2802596 -0.7417933 -1.0657687 -1.0473744 0.19668809 -2.088655 -2.9837394 -1.289088
00000000: f993 88bf 8868 22c0 c6bf 7ebf ea7f 74bf
00000010: 35df f7bf 8fd8 cfbf 238d 17c0 d3d5 09c0
00000020: eebc 2c3f d4ea 28c0 e325 b7bf 3309 48bf
00000030: 32c4 93bf 5967 8cbf ea61 b7bf fa88 0ac0
00000040: 387c 18bf 45af 32c0 f912 8dbf 4efa 9ebf
00000050: afc6 84bf f5a9 81bf 7e91 1ac0 e1ed 49bf
00000060: 7174 0ebf 1c01 ef3e b678 75bf 5009 ee3d
00000070: 6222 03c0 7b91 dabf e73c 9abf 3f1f bbbf
00000080: 7bf3 99bf 623a 9fbf 74ff a5be 8a14 11bf
00000090: 8452 85bf 2df6 c5c1 7f56 5dbf 88f0 fcbf
000000a0: 8e37 04bf 9641 6bbf 82c6 aebf a7ba d3c0
000000b0: 26ee a1bf 6841 3dbf 4001 70bf 2aa0 f0bf
000000c0: f18c 40bf 5686 d0bf 6e01 55bf da19 7fbe
000000d0: 4350 08bf c0e5 eebf 9eab 9ebf 04e6 85bf
000000e0: c6ef 11c0 2ae6 3dbf 1c6b 88bf 5d10 86bf
000000f0: 9a68 493e 86ac 05c0 96f5 3ec0 d600 a5bf

deepleaf/conv2_block1_1_conv/Conv2D i1 [48, 1, 1, 64]
17 16 31 9 54 2 -24 -25
30 31 -31 -13 4 36 -24 44
20 -2 11 -27 45 14 13 6
1 -99 -4 8 -35 7 11 -13
-28 -127 -78 20 -2 2 17 16
89 5 -66 -105 16 2 -35 -60
0 -34 8 20 49 -59 -14 41
34 15 9 -20 8 0 -47 50
6 -14 0 8 38 -1 17 -10
-14 -18 -14 1 9 15 -25 24
43 0 -39 -16 44 -9 28 -18
11 -70 -14 -28 -3 -9 12 17
-21 -40 -127 -10 -9 -9 16 -13
-44 -29 69 1 -10 7 -18 13
-42 12 -7 -36 -36 27 -5 -11
-34 13 -25 -7 -14 53 -24 -49
41 29 7 16 -25 18 65 61
17 9 37 -31 26 -20 40 61
-44 -51 22 51 -24 4 -81 24
12 32 -8 17 127 12 51 8
114 14 -7 36 -11 -3 -8 -15
40 -16 -42 21 0 24 81 -5
19 -23 10 19 26 16 43 0
27 18 2 37 -11 48 57 22
58 23 26 -2 -46 -40 79 71
5 -6 48 -33 22 -36 41 57
-35 -68 0 86 -59 1 -92 17
8 28 20 -12 127 19 34 -16
94 32 11 36 -44 15 -5 -5
19 -35 -25 21 -27 8 69 -13
4 -36 -2 20 29 33 33 16
34 21 9 18 13 -18 76 33
00000000: 1110 1f09 3602 e8e7 1e1f e1f3 0424 e82c
00000010: 14fe 0be5 2d0e 0d06 019d fc08 dd07 0bf3
00000020: e481 b214 fe02 1110 5905 be97 1002 ddc4
00000030: 00de 0814 31c5 f229 220f 09ec 0800 d132
00000040: 06f2 0008 26ff 11f6 f2ee f201 090f e718
00000050: 2b00 d9f0 2cf7 1cee 0bba f2e4 fdf7 0c11
00000060: ebd8 81f6 f7f7 10f3 d4e3 4501 f607 ee0d
00000070: d60c f9dc dc1b fbf5 de0d e7f9 f235 e8cf
00000080: 291d 0710 e712 413d 1109 25e1 1aec 283d
00000090: d4cd 1633 e804 af18 0c20 f811 7f0c 3308
000000a0: 720e f924 f5fd f8f1 28f0 d615 0018 51fb
000000b0: 13e9 0a13 1a10 2b00 1b12 0225 f530 3916
000000c0: 3a17 1afe d2d8 4f47 05fa 30df 16dc 2939
000000d0: ddbc 0056 c501 a411 081c 14f4 7f13 22f0
000000e0: 5e20 0b24 d40f fbfb 13dd e715 e508 45f3
000000f0: 04dc fe14 1d21 2110 2215 0912 0dee 4c21

deepleaf/conv2_block1_1_bn/FusedBatchNormV3 f4 [48]
2.4844792 0.21424702 -1.8418636 -1.6338012 2.5006447 2.9711218 0.6734444 0.2446205
-2.09578 2.5021548 0.81472874 -0.20694305 -1.2213981 2.9932818 1.1264414 2.7267113
0.47539303 1.8820349 3.4530778 -0.9969797 1.8663478 -0.14614418 -0.9136113 2.131297
-0.66653097 0.3649163 2.5905979 -1.9830171 -1.3320203 -1.7813025 -1.6748195 1.2049263
-1.2700385 -1.4359262 -0.9004297 -0.026810735 -1.110287 -1.4720314 -0.79775596 1.6225729
1.9910876 0.9700506 -1.6251264 -1.461975 0.010792077 2.5626483 0.90845364 1.6069269
00000000: b501 1f40 9263 5b3e 30c2 ebbf 6620 d1bf
00000010: 900a 2040 dc26 3e40 da66 2c3f cc7d 7a3e
00000020: 4221 06c0 4e23 2040 1092 503f e1e8 53be
00000030: c656 9cbf ee91 3f40 3b2f 903f 7082 2e40
00000040: b766 f33e 85e6 f03f 3aff 5c40 103a 7fbf
00000050: 7ce4 ee3f d2a6 15be 6ee2 69bf 2c67 0840
00000060: c6a1 2abf 4fd6 ba3e 5bcc 2540 81d3 fdbf
00000070: a47f aabf b801 e4bf 7c60 d6bf 063b 9a3f
00000080: 9f90 a2bf 6ecc b7bf 9082 66bf 30a2 dbbc
00000090: e21d 8ebf 866b bcbf bc39 4cbf 78b0 cf3f
000000a0: f5db fe3f 3c55 783f 2404 d0bf ff21 bbbf
000000b0: 40d1 303c 6e02 2440 6b90 683f c8af cd3f

deepleaf/conv2_block1_2_conv/Conv2D i1 [12, 3, 3, 48]
31 7 -29 -15 17 72 30 24
-59 12 -31 -52 -69 83 44 59
-9 -13 66 -80 -23 -12 -103 -26
-109 19 7 -40 -24 -56 -76 7
-34 -82 -82 -3 -10 -97 -48 73
42 -28 45 -92 -22 -35 -26 -3
48 16 8 -10 -3 46 12 7
-34 4 16 -57 -34 10 32 13
-13 -13 23 -57 39 -6 -56 -6
-127 3 56 -20 -14 -66 -97 32
-55 -56 -54 20 -36 -82 -50 83
92 17 26 -72 -26 -31 15 8
40 12 -33 -23 -26 -20 -14 23
-47 -45 42 -25 9 -43 -28 -44
1 36 -15 -11 63 6 -18 20
-89 12 17 -63 31 -26 -67 15
-31 -58 -22 26 -59 -35 -26 48
13 -13 40 -59 19 18 20 14
46 6 -30 -13 17 6 -1 -3
-21 18 48 -83 -52 -17 -53 8
-40 -2 -30 -83 19 -16 -38 39
-79 -38 53 -26 -46 -39 -67 -22
-4 -77 -69 -26 16 -76 -78 -3
7 37 32 -58 -40 9 5 -13
-26 12 9 12 17 -18 -30 -26
6 2 -25 -85 -19 -55 -25 3
-49 -62 -24 -67 -27 -15 3 -41
-95 -45 15 -8 -41 -48 -57 -39
-42 -53 -62 -28 -36 -39 -88 -21
-9 27 7 -65 -67 -74 -49 -71
42 3 -57 -49 43 61 -11 -58
-45 -3 -14 -56 -39 4 9 21
00000000: 1f07 e3f1 1148 1e18 c50c e1cc bb53 2c3b
00000010: f7f3 42b0 e9f4 99e6 9313 07d8 e8c8 b407
00000020: deae aefd f69f d049 2ae4 2da4 eadd e6fd
00000030: 3010 08f6 fd2e 0c07 de04 10c7 de0a 200d
00000040: f3f3 17c7 27fa c8fa 8103 38ec f2be 9f20
00000050: c9c8 ca14 dcae ce53 5c11 1ab8 e6e1 0f08
00000060: 280c dfe9 e6ec f217 d1d3 2ae7 09d5 e4d4
00000070: 0124 f1f5 3f06 ee14 a70c 11c1 1fe6 bd0f
00000080: e1c6 ea1a c5dd e630 0df3 28c5 1312 140e
00000090: 2e06 e2f3 1106 fffd eb12 30ad ccef cb08
000000a0: d8fe e2ad 13f0 da27 b1da 35e6 d2d9 bdea
000000b0: fcb3 bbe6 10b4 b2fd 0725 20c6 d809 05f3
000000c0: e60c 090c 11ee e2e6 0602 e7ab edc9 e703
000000d0: cfc2 e8bd e5f1 03d7 a1d3 0ff8 d7d0 c7d9
000000e0: d6cb c2e4 dcd9 a8eb f71b 07bf bdb6 cfb9
000000f0: 2a03 c7cf 2b3d f5c6 d3fd f2c8 d904 0915

deepleaf/conv5_block8_2_conv/Conv2D f4 [12]
0.0 0.0 0.0 0.0 0.0 0.0 0.0 0.0
0.0 0.0 0.0 0.0
00000000: 0000 0000 0000 0000 0000 0000 0000 0000
00000010: 0000 0000 0000 0000 0000 0000 0000 0000
00000020: 0000 0000 0000 0000 0000 0000 0000 0000

deepleaf/conv2_block2_0_bn/FusedBatchNormV31 f4 [76]
1.2522478 1.4558614 0.8673526 0.46585605 0.44500798 2.416613 1.6046492 1.4943426
1.2908788 2.8389268 1.0411129 2.770467 0.5020319 1.0540417 0.39461142 1.0105249
1.506258 3.5137806 0.50467527 0.58016956 0.697302 0.8628708 3.484832 1.3200237
0.09552299 0.01427694 1.0571376 0.42606214 2.4105332 0.4487127 0.27578008 0.59255934
0.21180803 2.8803456 1.7623112 0.15064847 0.37979984 48.070366 0.150064 1.5773441
0.49319264 2.1696308 1.207176 4.2491255 0.31117254 1.8013633 0.13487342 2.8554828
0.0917508 1.2427901 1.4336638 1.3810626 0.0008440419 3.9760537 0.16383459 0.8097518
2.5011249 0.13992138 1.675174 0.12850592 0.37392983 2.459974 2.2758458 3.4221008
0.087777585 0.042153034 0.04128383 0.0022932966 0.01868334 0.08581309 0.057370435 0.026957681
0.01833596 0.041184608 0.05849046 0.102578506
00000000: a849 a03f ab59 ba3f d20a 5e3f af84 ee3e
00000010: 16d8 e33e caa9 1a40 2565 cd3f 9e46 bf3f
00000020: 843b a53f fab0 3540 3043 853f 554f 3140
00000030: 2a85 003f d7ea 863f 820a ca3e e158 813f
00000040: 10cd c03f c8e1 6040 6632 013f fe85 143f
00000050: 6282 323f 1ae5 5c3f 7d07 5f40 89f6 a83f
00000060: 8fa1 c33d d4e9 693c 4950 873f d124 da3e
00000070: 2d46 1a40 acbd e53e 0c33 8d3e f8b1 173f
00000080: 34e4 583e 9557 3840 6a93 e13f 9843 1a3e
00000090: 2075 c23e 0e48 4042 61aa 193e 69e6 c93f
000000a0: bf83 fc3e 3bdb 0a40 be84 9a3f d6f8 8740
000000b0: 0252 9f3e 1393 e63f 421c 0a3e 3bc0 3640
000000c0: d8e7 bb3d bf13 9f3f 4c82 b73f a9c6 b03f
000000d0: b142 5d3a aa77 7e40 41c4 273e e54b 4f3f
000000e0: 6e12 2040 8d47 0f3e 1a6c d63f 0e97 033e
000000f0: bb73 bf3e 3770 1d40 75a7 1140 b303 5b40
00000100: bcc4 b33d a9a8 2c3d 3c19 293d 224b 163b
00000110: ce0d 993c c6be af3d 43fd 6a3d 5bd6 dc3c
00000120: 4c35 963c 31b1 283d b193 6f3d ae14 d23d

deepleaf/conv2_block2_0_bn/FusedBatchNormV3 f4 [76]
-0.6829697 -2.1008642 -1.4216655 -1.1887705 -0.4645331 -2.39114 -2.2073846 -1.5900936
-0.24363089 -1.1302507 -0.4516645 -4.2963667 -1.2171172 -1.596309 -1.0893633 -0.93370116
-1.4670773 -4.889062 -1.0449293 -1.6169691 -1.3061012 0.25715047 -4.713864 -1.5255667
-0.33288744 -0.22095814 -1.6341121 0.5430306 -0.39702997 -1.2048049 -0.6528481 -0.9642589
-0.970695 -3.0652049 -2.3510756 -0.64697856 -1.6450754 -47.895996 -0.81891835 -1.9350631
-1.0203075 -2.4146173 -1.7203863 -3.0858788 -1.1095843 -2.046395 -0.6154229 -1.1416798
-0.67348605 -1.9546212 -1.7311373 -0.44882524 -0.11287485 -1.867825 -0.9553138 -0.9529214
-2.5508935 -0.97047013 -1.8348211 -0.7661161 -0.97578716 -3.1963868 -1.6250653 -2.4427943
1.9873204 0.35510156 -0.341158 -0.8739302 -0.7056794 3.189266 -1.5522702 -1.9737732
-0.3915793 0.96476734 0.8801886 2.3722146
00000000: 1ad7 2ebf 8f74 06c0 23f9 b5bf a229 98bf
00000010: 48d7 edbe 7008 19c0 ca45 0dc0 3088 cbbf
00000020: 607a 79be 0eac 90bf 9240 e7be d67b 89c0
00000030: 7fca 9bbf da53 ccbf 4270 8bbf 0a07 6fbf
00000040: 30c9 bbbf 3273 9cc0 3ec0 85bf d8f8 cebf
00000050: 532e a7bf 3aa9 833e f9d7 96c0 c545 c3bf
00000060: 3970 aabe da42 62be 962a d1bf 0e04 0b3f
00000070: 8347 cbbe 0c37 9abf 0e21 27bf acd9 76bf
00000080: 787f 78bf 512c 44c0 0678 16c0 63a0 25bf
00000090: d591 d2bf 8095 3fc2 a2a4 51bf 26b0 f7bf
000000a0: 7099 82bf 1789 1ac0 9e35 dcbf 0a7f 45c0
000000b0: dc06 8ebf 23f8 02c0 5b8c 1dbf 9022 92bf
000000c0: 9569 2cbf 0731 fabf e895 ddbf 6ccc e5be
000000d0: ee2a e7bd e414 efbf 728f 74bf a8f2 73bf
000000e0: d741 23c0 bb70 78bf 6bdb eabf 2f20 44bf
000000f0: 30cd 79bf 9a91 4cc0 2402 d0bf be56 1cc0
00000100: 8460 fe3f dfcf b53e 43ac aebe e4b9 5fbf
00000110: 68a7 34bf ef1c 4c40 cab0 c6bf 9aa4 fcbf
00000120: 157d c8be fefa 763f 0a54 613f 5dd2 1740

deepleaf/conv2_block2_1_conv/Conv2D i1 [48, 1, 1, 76]
-23 -33 -8 4 12 -26 -48 -40
-40 -44 -45 6 6 19 8 -53
-5 -1 -19 -22 -17 21 4 25
-15 14 -35 -17 18 -9 24 15
-3 18 -20 11 2 18 -11 -14
-10 -38 5 -35 -11 19 9 -28
-6 -3 6 -25 21 -31 -11 23
-5 0 17 -7 0 12 -57 23
-16 -30 -21 -8 8 -127 -19 -17
21 -14 22 21 -29 41 8 -6
-25 40 60 4 40 -77 -3 13
-63 0 -17 27 -23 16 8 23
31 -15 -12 -53 19 -44 -11 -89
35 4 34 -28 1 25 24 19
8 -69 42 3 13 -17 -21 0
7 -56 -1 8 -8 8 -73 -28
35 -127 -6 -59 -12 -14 -34 18
20 -16 -75 41 34 -3 21 -33
-6 0 32 4 -30 -6 -29 46
18 -73 -78 32 -15 11 -33 -21
43 118 -21 -122 -29 -32 -1 -49
39 -59 -9 16 -58 34 -100 -63
-3 -24 -26 106 18 -16 14 77
5 -58 -17 1 -26 -13 -2 77
37 -15 11 97 -9 -42 -6 -82
12 -97 27 112 32 -19 -25 -61
-38 15 65 -1 2 -66 127 55
64 43 -79 -14 15 25 43 -12
29 -53 41 -10 -43 61 -20 -18
-4 -16 -20 -44 -73 -23 -35 65
7 -28 -6 -93 10 77 28 -68
18 -117 55 21 -2 -49 37 -32
00000000: e9df f804 0ce6 d0d8 d8d4 d306 0613 08cb
00000010: fbff edea ef15 0419 f10e ddef 12f7 180f
00000020: fd12 ec0b 0212 f5f2 f6da 05dd f513 09e4
00000030: fafd 06e7 15e1 f517 fb00 11f9 000c c717
00000040: f0e2 ebf8 0881 edef 15f2 1615 e329 08fa
00000050: e728 3c04 28b3 fd0d c100 ef1b e910 0817
00000060: 1ff1 f4cb 13d4 f5a7 2304 22e4 0119 1813
00000070: 08bb 2a03 0def eb00 07c8 ff08 f808 b7e4
00000080: 2381 fac5 f4f2 de12 14f0 b529 22fd 15df
00000090: fa00 2004 e2fa e32e 12b7 b220 f10b dfeb
000000a0: 2b76 eb86 e3e0 ffcf 27c5 f710 c622 9cc1
000000b0: fde8 e66a 12f0 0e4d 05c6 ef01 e6f3 fe4d
000000c0: 25f1 0b61 f7d6 faae 0c9f 1b70 20ed e7c3
000000d0: da0f 41ff 02be 7f37 402b b1f2 0f19 2bf4
000000e0: 1dcb 29f6 d53d ecee fcf0 ecd4 b7e9 dd41
000000f0: 07e4 faa3 0a4d 1cbc 128b 3715 fecf 25e0

deepleaf/conv2_block2_1_bn/FusedBatchNormV3 f4 [48]
0.94954973 2.5935802 -1.4397762 0.8787534 4.213792 0.71825135 0.57198405 1.1315705
-1.7149826 -1.0462275 1.8788855 -1.7333026 1.7027662 -1.7787507 -1.8351424 0.85242057
6.5082583 3.016608 -0.87691253 -1.0110743 -2.284217 -0.29305828 -0.5333346 0.98972213
-1.4784807 -2.117803 -0.4599719 -1.2955676 -1.0985572 -0.07636209 -0.6109088 1.2617619
-1.8605844 -1.6699957 0.48544317 -1.2953408 -1.6334167 -1.3904166 2.725728 3.114718
-1.3928175 -0.28799075 0.45419505 -3.0678897 1.5030286 -1.4114166 -0.50476664 0.72444546
00000000: b115 733f 38fd 2540 964a b8bf fcf5 603f
00000010: 62d7 8640 52df 373f 8c6d 123f 4dd7 903f
00000020: 8d84 dbbf c8ea 85bf 527f f03f dcdc ddbf
00000030: 3ef4 d93f 1aae e3bf f2e5 eabf 3c38 5a3f
00000040: a743 d040 1b10 4140 577d 60bf e26a 81bf
00000050: 9c30 12c0 bc0b 96be 9e88 08bf 6e5e 7d3f
00000060: db3e bdbf 168a 07c0 7081 ebbe 29d5 a5bf
00000070: 869d 8cbf ba63 9cbd 8564 1cbf 6a81 a13f
00000080: a127 eebf 6bc2 d5bf 028c f83e bacd a5bf
00000090: cc13 d1bf 2cf9 b1bf 5472 2e40 8a57 4740
000000a0: d847 b2bf 8673 93be 418c e83e 4e58 44c0
000000b0: 3e63 c03f 4da9 b4bf 6338 01bf 4275 393f

deepleaf/conv2_block2_2_conv/Conv2D i1 [12, 3, 3, 48]
45 75 -44 67 46 108 -103 104
-76 -44 -76 -32 113 -94 -70 -41
85 -21 11 -42 -30 -41 77 81
-103 -74 -5 -69 -51 -31 -26 77
-91 -89 18 -113 -40 -78 32 19
-113 -64 -44 -9 103 -25 -73 83
23 94 -51 34 29 61 -55 80
-81 -25 -81 35 66 -33 -63 23
46 -49 -64 52 -22 -72 11 35
-62 -66 18 -64 -93 35 -39 40
-32 -47 48 -77 -58 -8 31 -84
-97 1 -84 -25 51 -36 -109 113
24 64 -69 26 28 43 -34 38
-87 -14 -73 27 33 -61 -57 63
34 2 -42 49 -33 -42 -29 30
-90 -33 39 -58 -82 33 -29 20
-26 -54 102 -79 -55 -26 -8 -64
-109 19 -81 -52 28 -46 -127 75
31 98 -38 28 -21 51 -111 66
15 -25 -82 4 62 -18 5 -12
27 -70 21 20 -25 -27 71 93
-25 36 -7 19 8 16 9 30
-43 -23 -27 -90 7 -2 6 -42
-18 7 -47 9 47 -21 -16 39
40 46 -16 13 -63 -6 -37 41
62 43 -75 94 34 25 41 57
-23 -61 -33 104 -27 -5 -4 87
52 69 25 35 -9 98 -21 5
-28 65 19 -34 10 61 7 -98
2 60 -82 61 32 10 0 42
47 21 -24 21 -37 9 -15 31
-6 10 -17 54 41 -50 -15 63
00000000: 2d4b d443 2e6c 9968 b4d4 b4e0 71a2 bad7
00000010: 55eb 0bd6 e2d7 4d51 99b6 fbbb cde1 e64d
00000020: a5a7 128f d8b2 2013 8fc0 d4f7 67e7 b753
00000030: 175e cd22 1d3d c950 afe7 af23 42df c117
00000040: 2ecf c034 eab8 0b23 c2be 12c0 a323 d928
00000050: e0d1 30b3 c6f8 1fac 9f01 ace7 33dc 9371
00000060: 1840 bb1a 1c2b de26 a9f2 b71b 21c3 c73f
00000070: 2202 d631 dfd6 e31e a6df 27c6 ae21 e314
00000080: e6ca 66b1 c9e6 f8c0 9313 afcc 1cd2 814b
00000090: 1f62 da1c eb33 9142 0fe7 ae04 3eee 05f4
000000a0: 1bba 1514 e7e5 475d e724 f913 0810 091e
000000b0: d5e9 e5a6 07fe 06d6 ee07 d109 2feb f027
000000c0: 282e f00d c1fa db29 3e2b b55e 2219 2939
000000d0: e9c3 df68 e5fb fc57 3445 1923 f762 eb05
000000e0: e441 13de 0a3d 079e 023c ae3d 200a 002a
000000f0: 2f15 e815 db09 f11f fa0a ef36 29ce f13f

deepleaf/conv2_block3_0_bn/FusedBatchNormV31 f4 [88]
1.228703 1.6473131 0.9072598 1.54179 1.1083728 2.3051775 1.3765948 1.7233436
1.7248985 3.927059 1.0937665 2.2903485 0.6543818 0.119268104 0.58757895 1.3521824
1.1048461 1.6095724 0.22387148 1.0546418 1.2306281 2.0517037 2.61846 0.31855914
0.9468714 0.5382702 0.9329329 0.44498026 3.3843994 0.33875585 0.5478937 0.04872331
1.4078014 2.4722354 1.6800123 0.6619631 0.34084538 40.052853 1.49365 1.1769899
0.32121113 1.3244398 0.3195267 1.9827446 0.08542685 1.1563872 1.346074 3.6161401
0.09055166 1.232569 1.1291918 1.0105816 0.3196177 0.043798227 1.8772407 0.8119509
2.9168336 0.15618482 1.6751959 0.6196848 5.776744 1.6958438 1.1255264 3.2536836
0.03616424 0.05567349 0.07722973 0.03632276 0.04122549 0.08494349 0.07034382 0.0059924643
0.03861435 0.053728018 0.0071303085 0.025860205 0.09531322 0.116714545 0.003885472 0.14343025
0.036626387 0.08239003 0.07953257 0.031554032 0.018793426 0.02980893 0.0407774 0.05278097
00000000: 2446 9d3f 28db d23f 2e42 683f 6059 c53f
00000010: 29df 8d3f 0788 1340 4234 b03f 8696 dc3f
00000020: 79c9 dc3f ef54 7b40 8a00 8c3f 1295 1240
00000030: 9185 273f d642 f43d 936b 163f 5014 ad3f
00000040: 996b 8d3f 7806 ce3f 913e 653e 81fe 863f
00000050: 3985 9d3f 1d4f 0340 d994 2740 2f1a a33e
00000060: 2a66 723f 13cc 093f b1d4 6e3f 74d4 e33e
00000070: 009a 5840 6871 ad3e c342 0c3f 1892 473d
00000080: d632 b43f 1b39 1e40 a50a d73f 6a76 293f
00000090: 4983 ae3e 1f36 2042 ec2f bf3f 9ba7 963f
000000a0: c975 a43e 3e87 a93f 0199 a33e 93ca fd3f
000000b0: 46f4 ae3d 7f04 943f 274c ac3f d76e 6740
000000c0: 2673 b93d d2c4 9d3f 5b89 903f bd5a 813f
000000d0: eea4 a33e c565 333d 6c49 f03f 04dc 4f3f
000000e0: 67ad 3a40 eaee 1f3e d26c d63f aaa3 1e3f
000000f0: 16db b840 6911 d93f 4011 903f 5a3c 5040
00000100: f420 143d e309 643d 9f2a 9e3d 2dc7 143d
00000110: 0fdc 283d daf6 ad3d 6c10 903d 6f5c c43b
00000120: 152a 1e3d e911 5c3d 5da5 e93b c8d8 d33c
00000130: 9433 c33d 0908 ef3d 67a3 7e3b 61df 123e
00000140: 8d05 163d 1bbc a83d f9e1 a23d cd3e 013d
00000150: acf4 993c db31 f43c 3406 273d dc30 583d

deepleaf/conv2_block3_0_bn/FusedBatchNormV3 f4 [88]
-1.3337016 -1.8760023 -0.77552634 -1.8794391 -0.40322512 -2.018434 -1.8720175 -1.4808394
-1.3776172 -2.3649583 -1.8745964 -3.1550303 -1.1659622 -0.6889478 -1.4247687 -1.4281754
-0.9195964 -2.6449394 -1.267375 -1.0226767 -1.620111 -1.5595186 -3.3031087 -0.97685874
-1.3176718 -0.7362703 -0.95684475 0.13366312 -1.0244884 -0.9393276 -0.98075235 -0.9212872
-0.7716037 -3.2308857 -2.0184326 -0.32743043 -1.427028 -40.315765 -1.3934939 -1.7376708
-1.317881 -2.038214 -1.2287924 -2.220458 -0.8081298 -0.9116365 -0.8069732 -1.3818617
-0.76700145 -1.7166526 -1.7465544 -0.518758 -1.1451414 -0.4171951 -1.6491244 -0.9247523
-3.2114947 -1.0262105 -2.0349352 -1.4848431 -0.9248574 -2.3159668 -2.2482905 -2.9612978
0.3561513 -0.106944844 -0.09886882 -0.6271362 -0.44627574 1.9464319 -1.6879573 -1.312358
0.4538561 0.84824705 -1.0286117 0.86639583 1.0128487 0.048609167 -0.8568079 0.59000087
-0.7919669 1.2851814 -1.4683877 -0.8861376 -0.8712151 -0.27037987 0.1837647 -1.2749057
00000000: bcb6 aabf d820 f0bf e588 46bf 7691 f0bf
00000010: 8673 cebe 062e 01c0 459e efbf 258c bdbf
00000020: c355 b0bf 7a5b 17c0 c6f2 efbf 04ec 49c0
00000030: 403e 95bf e25e 30bf d25e b6bf 74ce b6bf
00000040: ab6a 6bbf b046 29c0 5839 a2bf 12e7 82bf
00000050: cc5f cfbf 4e9e c7bf 2266 53c0 6a13 7abf
00000060: 78a9 a8bf 367c 3cbf c7f3 74bf fcde 083e
00000070: 7022 83bf c677 70bf 9612 7bbf 7ad9 6bbf
00000080: d287 45bf d5c6 4ec0 002e 01c0 f6a4 a7be
00000090: daa8 b6bf 5843 21c2 025e b2bf ff6b debf
000000a0: 53b0 a8bf 1972 02c0 1249 9dbf fc1b 0ec0
000000b0: 98e1 4ebf 0261 69bf cc95 4ebf d8e0 b0bf
000000c0: 355a 44bf 46bb dbbf 188f dfbf 53cd 04bf
000000d0: fe93 92bf 999a d5be 8216 d3bf 91bc 6cbf
000000e0: 2189 4dc0 de5a 83bf 613c 02c0 570f bebf
000000f0: 74c3 6cbf cd38 14c0 fee3 0fc0 e785 3dc0
00000100: 7759 b63e e605 dbbd bc7b cabd ff8b 20bf
00000110: 417e e4be ae24 f93f fc0e d8bf 59fb a7bf
00000120: d45f e83e b826 593f 8ca9 83bf 1ecc 5d3f
00000130: 07a5 813f 681a 473d c357 5bbf 4c0a 173f
00000140: 58be 4abf d380 a43f 21f4 bbbf ead9 62bf
00000150: f407 5fbf 3b6f 8abe d02c 3c3e 1c30 a3bf

deepleaf/conv2_block3_1_conv/Conv2D i1 [48, 1, 1, 88]
-12 -1 6 10 -34 40 11 12
-27 -127 36 31 -20 -4 6 36
-8 22 9 37 27 1 11 -10
1 51 -15 -16 2 -2 -26 1
17 17 38 -6 48 -17 -9 -5
28 -30 5 3 -11 -27 1 -8
4 45 -16 19 8 4 7 -2
-30 7 22 2 -51 -31 13 -15
11 -97 4 9 7 -25 -40 -15
5 10 3 44 6 -19 8 -12
-37 -19 -35 -2 5 -24 19 -25
-18 -77 -35 -8 -30 10 -6 47
-8 -33 -33 -127 -27 -30 2 25
-31 -22 0 42 19 -5 -68 -38
42 14 -22 -10 -36 3 -16 0
-5 22 28 -22 -44 -20 49 -6
-56 -44 -19 -64 -13 -12 -42 1
-5 -63 -52 -68 16 -41 -6 -70
-69 -2 10 33 -54 3 -33 43
7 -22 12 41 -30 23 -24 -2
5 19 34 -6 -27 -11 13 -52
-38 -39 -8 -57 20 -52 33 -1
-78 -50 -127 -55 81 -75 39 -49
77 88 -2 -26 4 -1 18 -20
73 -47 1 12 -16 11 -44 3
-39 65 -36 73 -17 -13 21 -8
-34 33 16 34 31 -12 45 -58
66 -19 38 -26 -14 24 -48 -23
17 -59 2 64 40 -4 -104 -72
-17 -13 -31 69 -70 15 -25 -63
-28 -67 -58 -20 20 -2 -56 -17
20 -5 28 17 -105 -35 -5 16
00000000: f4ff 060a de28 0b0c e581 241f ecfc 0624
00000010: f816 0925 1b01 0bf6 0133 f1f0 02fe e601
00000020: 1111 26fa 30ef f7fb 1ce2 0503 f5e5 01f8
00000030: 042d f013 0804 07fe e207 1602 cde1 0df1
00000040: 0b9f 0409 07e7 d8f1 050a 032c 06ed 08f4
00000050: dbed ddfe 05e8 13e7 eeb3 ddf8 e20a fa2f
00000060: f8df df81 e5e2 0219 e1ea 002a 13fb bcda
00000070: 2a0e eaf6 dc03 f000 fb16 1cea d4ec 31fa
00000080: c8d4 edc0 f3f4 d601 fbc1 ccbc 10d7 faba
00000090: bbfe 0a21 ca03 df2b 07ea 0c29 e217 e8fe
000000a0: 0513 22fa e5f5 0dcc dad9 f8c7 14cc 21ff
000000b0: b2ce 81c9 51b5 27cf 4d58 fee6 04ff 12ec
000000c0: 49d1 010c f00b d403 d941 dc49 eff3 15f8
000000d0: de21 1022 1ff4 2dc6 42ed 26e6 f218 d0e9
000000e0: 11c5 0240 28fc 98b8 eff3 e145 ba0f e7c1
000000f0: e4bd c6ec 14fe c8ef 14fb 1c11 97dd fb10

deepleaf/conv2_block3_1_bn/FusedBatchNormV3 f4 [48]
2.0880039 0.8913207 -0.33628473 -0.42510808 0.199079 1.4835459 -1.7935323 -0.8807198
-1.39344 1.1669747 -2.4744449 -0.5455132 -0.95883393 0.40043488 -1.434789 2.1010568
0.9754505 -0.48833376 1.0670313 1.5629058 0.21347049 -1.4382461 -1.9397457 0.58584803
-1.3807654 2.184888 -0.81093323 2.2478812 -1.2768167 0.9551656 0.24703586 1.5098864
0.837377 -2.2483606 -0.034163952 0.22044066 -0.2629132 -1.9969705 3.0433095 0.9016557
-0.41460723 2.0492017 2.2338693 1.3423625 0.9115709 3.1418188 -0.2335259 3.39118
00000000: dba1 0540 982d 643f 832d acbe c4a7 d9be
00000010: 5edb 4b3e d5e4 bd3f 7792 e5bf da76 61bf
00000020: 3e5c b2bf 6d5f 953f 4e5d 1ec0 c1a6 0bbf
00000030: 2476 75bf cd05 cd3e 2aa7 b7bf b777 0640
00000040: 20b7 793f e206 fabe 7b94 883f 4c0d c83f
00000050: 0298 5a3e 7318 b8bf 9649 f8bf 23fa 153f
00000060: ecbc b0bf 34d5 0b40 5299 4fbf 49dd 0f40
00000070: bb6e a3bf bc85 743f f8f6 7c3e f543 c13f
00000080: 575e 563f 24e5 0fc0 80ef 0bbd 32bb 613e
00000090: 8f9c 86be bb9c ffbf 95c5 4240 e8d2 663f
000000a0: 6647 d4be 1f26 0340 b7f7 0e40 89d2 ab3f
000000b0: b65c 693f 8f13 4940 6a21 6fbe 1809 5940

deepleaf/conv2_block3_2_conv/Conv2D i1 [12, 3, 3, 48]
-41 6 -6 -39 -21 -12 -41 -26
0 -15 -30 37 -20 21 30 -8
-49 -8 -64 -54 51 -5 4 52
-23 -26 -38 48 -29 2 48 18
-20 -40 71 41 -5 -63 -71 21
-6 38 -23 4 -18 -50 19 -17
-104 -23 -2 -46 -62 -36 5 22
55 -74 -6 60 13 31 37 -29
-52 1 -103 -18 75 26 27 62
10 34 -33 66 -24 25 94 56
-41 -24 73 62 8 -33 -127 -1
22 57 -78 -4 -83 -121 10 29
-20 -6 -25 -2 -15 -19 -9 44
22 -44 -14 33 23 55 -51 -36
-1 -6 -4 46 30 -23 21 4
-14 38 -42 55 17 39 55 55
-6 -33 40 15 51 -39 -45 -35
-66 52 -16 1 -16 -39 34 33
-13 28 -2 -29 26 -25 -8 38
42 -16 4 23 17 -32 10 -41
-14 0 6 -70 2 28 28 19
-6 -67 15 2 27 -8 -15 -25
-2 2 27 25 37 -13 -13 -2
15 -22 19 -3 26 5 33 -43
-14 3 -12 -34 19 -24 -6 77
93 -35 13 40 59 -56 11 -64
18 -4 13 -21 19 72 27 21
51 -71 18 -4 42 -17 18 -14
2 7 46 44 21 -1 -8 -40
22 -35 19 -11 31 5 43 -67
14 3 -26 25 18 -31 6 56
56 -50 27 47 51 -14 -52 -87
00000000: d706 fad9 ebf4 d7e6 00f1 e225 ec15 1ef8
00000010: cff8 c0ca 33fb 0434 e9e6 da30 e302 3012
00000020: ecd8 4729 fbc1 b915 fa26 e904 eece 13ef
00000030: 98e9 fed2 c2dc 0516 37b6 fa3c 0d1f 25e3
00000040: cc01 99ee 4b1a 1b3e 0a22 df42 e819 5e38
00000050: d7e8 493e 08df 81ff 1639 b2fc ad87 0a1d
00000060: ecfa e7fe f1ed f72c 16d4 f221 1737 cddc
00000070: fffa fc2e 1ee9 1504 f226 d637 1127 3737
00000080: fadf 280f 33d9 d3dd be34 f001 f0d9 2221
00000090: f31c fee3 1ae7 f826 2af0 0417 11e0 0ad7
000000a0: f200 06ba 021c 1c13 fabd 0f02 1bf8 f1e7
000000b0: fe02 1b19 25f3 f3fe 0fea 13fd 1a05 21d5
000000c0: f203 f4de 13e8 fa4d 5ddd 0d28 3bc8 0bc0
000000d0: 12fc 0deb 1348 1b15 33b9 12fc 2aef 12f2
000000e0: 0207 2e2c 15ff f8d8 16dd 13f5 1f05 2bbd
000000f0: 0e03 e619 12e1 0638 38ce 1b2f 33f2 cca9

deepleaf/pool2_bn/FusedBatchNormV31 f4 [100]
0.58302575 2.2753725 1.497729 0.9305705 2.4016244 1.1245832 1.8902168 1.2493916
1.2197474 3.204602 1.4619416 2.2668476 1.1301652 0.7932513 0.51476556 1.7247744
1.7863888 2.7119124 1.330629 0.7647433 1.7622851 1.2168853 2.9217324 1.2629545
1.3312651 0.58580995 1.0294801 0.3889303 4.289334 0.782927 1.2321947 0.5968101
1.3166695 1.9305223 1.3337413 1.5296189 0.4733657 1.0260779 0.7182021 1.1209799
0.2862905 1.3588574 1.0507021 2.7734897 0.7538455 1.7536436 1.4147686 3.024835
0.7175075 1.3640144 1.1099627 0.8633757 0.32407153 3.5429828 1.6394552 0.87173706
3.4740689 0.530457 1.9856663 0.9157369 5.8239193 3.7543862 1.8880577 2.4391465
0.039501257 0.09473192 0.047293853 0.04123757 0.048926055 0.10186768 0.064693816 0.03458783
0.053531695 0.060475208 0.07218419 0.08799393 0.06750714 0.10596468 0.045771547 0.15069024
0.038634613 0.094789326 0.037576653 0.046635367 0.08401071 0.048203204 0.06722499 0.044793896
0.19822575 0.0797341 0.08971282 0.07483006 0.1202188 0.072140016 0.11478231 0.17481597
0.0759856 0.1198648 0.10888048 0.060120158
00000000: 2d41 153f b49f 1140 95b5 bf3f de39 6e3f
00000010: 37b4 1940 58f2 8f3f a0f2 f13f 10ec 9f3f
00000020: af20 9c3f 3318 4d40 e720 bb3f 0814 1140
00000030: 41a9 903f 8412 4b3f adc7 033f 68c5 dc3f
00000040: 63a8 e43f f98f 2d40 0d52 aa3f 38c6 433f
00000050: 8f92 e13f e6c2 9b3f aafd 3a40 7ea8 a13f
00000060: e566 aa3f a4f7 153f 01c6 833f df21 c73e
00000070: 3942 8940 e76d 483f 8eb8 9d3f 8cc8 183f
00000080: a088 a83f 5b1b f73f 09b8 aa3f 8dca c33f
00000090: fd5c f23e 8556 833f 18dc 373f 457c 8f3f
000000a0: ab94 923e 0aef ad3f 687d 863f db80 3140
000000b0: 05fc 403f 6577 e03f 2317 b53f e696 4140
000000c0: 92ae 373f 0698 ae3f 4213 8e3f 3106 5d3f
000000d0: b4ec a53e 3bc0 6240 abd9 d13f 292a 5f3f
000000e0: 2557 5e40 08cc 073f 502a fe3f bc6d 6a3f
000000f0: 8c5d ba40 dd47 7040 e0ab f13f fa1a 1c40
00000100: 12cc 213d cf02 c23d 33b7 413d bae8 283d
00000110: b066 483d 01a0 d03d 317e 843d f8ab 0d3d
00000120: 0d44 5b3d dab4 773d 4ed5 933d 2936 b43d
00000130: 2f41 8a3d 0304 d93d f27a 3b3d 8b4e 1a3e
00000140: 543f 1e3d e820 c23d fae9 193d ba04 3f3d
00000150: cf0d ac3d b970 453d 41ad 893d ce79 373d
00000160: b1fb 4a3e a24b a33d 5bbb b73d 8140 993d
00000170: 4635 f63d 25be 933d fd12 eb3d f502 333e
00000180: 579e 9b3d ad7b f53d bbfc de3d 8e40 763d

deepleaf/pool2_bn/FusedBatchNormV3 f4 [100]
-1.3415066 -1.1743618 -0.8896548 -1.0431745 -1.9758325 -0.9405923 -1.4317381 -0.56022227
-0.81370217 -3.5995972 -0.9132987 -1.3312157 -1.2122816 -0.94402385 -1.3464595 -1.186797
-1.0915638 -2.0759106 -1.14989 -1.2531044 -1.1213166 -0.8012055 -1.6003282 -1.3110957
-0.9321995 -1.1903259 -0.92893404 -0.5149127 -1.1948051 -0.96168125 -0.52126217 -0.826288
-1.4939501 -2.0964704 -1.5692056 -1.2838178 -0.8937724 -1.5182395 -1.2442312 -1.7040207
-0.79642427 -1.4014696 -0.88893104 -2.9247735 -1.2802234 -1.1503348 -1.3313291 -2.8088727
-1.0790817 -1.1104318 -1.241811 -1.0949157 -1.0513365 -3.2074504 -1.0952284 -0.8517291
-3.178769 -1.0607033 -1.9262763 -0.49475634 -1.4106587 -3.2544556 -1.5625777 -1.8785994
0.31795102 0.007598877 -0.22949013 -0.8476565 -0.34385064 1.8598361 -1.3784239 -1.7941297
0.60990226 1.1032317 0.95782655 2.593134 -0.067029715 -0.6923667 -0.7786405 -0.25591242
-1.2783723 -0.2793197 -0.9765253 -0.8321852 0.46921134 0.46794826 0.39336067 -1.2705835
0.5528576 -0.17638601 -0.38234505 -0.7568844 1.299155 -1.4597298 0.86875135 0.7574542
-1.5966277 -0.4583419 -1.0169066 -0.79053754
00000000: 7db6 abbf 7d51 96bf 6bc0 63bf be86 85bf
00000010: 14e8 fcbf a8ca 70bf 3243 b7bf ba6a 0fbf
00000020: c94e 50bf cd5f 66c0 f2cd 69bf 4765 aabf
00000030: 0b2c 9bbf 8cab 71bf c958 acbf f7e8 97bf
00000040: 5db8 8bbf b8db 04c0 982f 93bf ba65 a0bf
00000050: 4d87 8fbf ce1b 4dbf 8ed7 ccbf fcd1 a7bf
00000060: a0a4 6ebf 995c 98bf 9fce 6dbf 52d1 03bf
00000070: 60ef 98bf be30 76bf 7071 05bf 9c87 53bf
00000080: c239 bfbf 922c 06c0 bbdb c8bf 2454 a4bf
00000090: 45ce 64bf ac55 c2bf f842 9fbf 5a1d dabf
000000a0: 76e2 4bbf 5b63 b3bf fc90 63bf 7d2f 3bc0
000000b0: 5cde a3bf 2c3e 93bf fe68 aabf 92c4 33c0
000000c0: 591f 8abf a122 8ebf aaf3 9ebf 3326 8cbf
000000d0: 3292 86bf de46 4dc0 7230 8cbf eb0a 5abf
000000e0: f470 4bc0 20c5 87bf 3990 f6bf b450 fdbe
000000f0: 7790 b4bf 0049 50c0 8c02 c8bf f275 f0bf
00000100: 7aca a23e 0000 f93b 76ff 6abe 0400 59bf
00000110: 310d b0be 1c0f ee3f 3270 b0bf 0ba6 e5bf
00000120: 8e22 1c3f b236 8d3f 1f34 753f e8f5 2540
00000130: e046 89bd f23e 31bf fc54 47bf f406 83be
00000140: b4a1 a3bf fe02 8fbe 90fd 79bf 170a 55bf
00000150: 783c f03e ea96 ef3e 9266 c93e 7ba2 a2bf
00000160: 1388 0d3f 899e 34be bbc2 c3be 2dc3 41bf
00000170: b64a a63f 6dd8 babf 7d66 5e3f 85e8 413f
00000180: 4c5e ccbf caab eabe ff29 82bf ab60 4abf

deepleaf/pool2_conv/Conv2D1 i1 [50, 1, 1, 100]
-37 62 -49 -1 -10 -24 25 8
8 19 10 109 -10 41 -1 59
16 87 -20 38 5 4 127 -5
0 -2 -12 4 1 -25 80 7
-14 2 5 -18 71 -5 -3 -36
-44 4 -9 18 -7 -37 -19 39
5 89 2 14 -23 -10 -37 9
11 -15 5 -24 -47 -40 23 0
41 -31 -8 -8 3 -34 -38 -19
0 14 47 25 -19 10 -84 6
-103 -2 -11 -5 27 -37 6 13
23 -9 -1 -22 20 -12 14 4
-42 -15 -11 -27 4 -3 32 -32
-25 -2 -9 3 10 -109 6 26
-46 3 11 6 42 -7 -14 7
-11 5 1 -78 2 41 3 -17
-2 18 -11 -43 -10 37 31 -30
54 -28 1 -34 -13 28 6 -14
-2 -44 11 -127 9 4 -47 -22
26 48 39 -21 -21 -31 -22 -2
-13 -53 5 22 -16 -43 55 35
6 11 -18 -11 26 39 19 13
-14 -84 18 -55 -5 1 -39 -54
40 14 27 -48 -6 -26 -22 -10
-5 21 -53 -63 -37 -11 15 21
31 -23 -47 18 64 -84 -86 -5
-61 68 -91 -7 4 13 -42 -68
-6 5 -106 -23 60 -23 10 22
-127 57 -25 -33 -25 -41 -58 28
20 -10 -18 46 21 7 26 -7
36 -70 56 -69 21 35 6 2
67 0 -10 9 59 -51 -28 6
00000000: db3e cfff f6e8 1908 0813 0a6d f629 ff3b
00000010: 1057 ec26 0504 7ffb 00fe f404 01e7 5007
00000020: f202 05ee 47fb fddc d404 f712 f9db ed27
00000030: 0559 020e e9f6 db09 0bf1 05e8 d1d8 1700
00000040: 29e1 f8f8 03de daed 000e 2f19 ed0a ac06
00000050: 99fe f5fb 1bdb 060d 17f7 ffea 14f4 0e04
00000060: d6f1 f5e5 04fd 20e0 e7fe f703 0a93 061a
00000070: d203 0b06 2af9 f207 f505 01b2 0229 03ef
00000080: fe12 f5d5 f625 1fe2 36e4 01de f31c 06f2
00000090: fed4 0b81 0904 d1ea 1a30 27eb ebe1 eafe
000000a0: f3cb 0516 f0d5 3723 060b eef5 1a27 130d
000000b0: f2ac 12c9 fb01 d9ca 280e 1bd0 fae6 eaf6
000000c0: fb15 cbc1 dbf5 0f15 1fe9 d112 40ac aafb
000000d0: c344 a5f9 040d d6bc fa05 96e9 3ce9 0a16
000000e0: 8139 e7df e7d7 c61c 14f6 ee2e 1507 1af9
000000f0: 24ba 38bb 1523 0602 4300 f609 3bcd e406

deepleaf/pool2_conv/Conv2D f4 [50]
0.0 0.0 0.0 0.0 0.0 0.0 0.0 0.0
0.0 0.0 0.0 0.0 0.0 0.0 0.0 0.0
0.0 0.0 0.0 0.0 0.0 0.0 0.0 0.0
0.0 0.0 0.0 0.0 0.0 0.0 0.0 0.0
0.0 0.0 0.0 0.0 0.0 0.0 0.0 0.0
0.0 0.0 0.0 0.0 0.0 0.0 0.0 0.0
0.0 0.0
00000000: 0000 0000 0000 0000 0000 0000 0000 0000
00000010: 0000 0000 0000 0000 0000 0000 0000 0000
00000020: 0000 0000 0000 0000 0000 0000 0000 0000
00000030: 0000 0000 0000 0000 0000 0000 0000 0000
00000040: 0000 0000 0000 0000 0000 0000 0000 0000
00000050: 0000 0000 0000 0000 0000 0000 0000 0000
00000060: 0000 0000 0000 0000 0000 0000 0000 0000
00000070: 0000 0000 0000 0000 0000 0000 0000 0000
00000080: 0000 0000 0000 0000 0000 0000 0000 0000
00000090: 0000 0000 0000 0000 0000 0000 0000 0000
000000a0: 0000 0000 0000 0000 0000 0000 0000 0000
000000b0: 0000 0000 0000 0000 0000 0000 0000 0000
000000c0: 0000 0000 0000 0000

deepleaf/conv3_block1_0_bn/FusedBatchNormV31 f4 [50]
0.20095639 0.20471138 0.21371482 0.19344488 0.18574499 0.32815132 0.18163742 0.2981521
0.25129476 0.1286187 0.289981 0.16174304 0.25795156 0.16166173 0.07564474 0.095419
0.13107787 0.1727941 0.15631177 0.19517553 0.1830173 0.22839096 0.057295613 0.25588042
0.18934996 0.11985429 0.26672158 0.20730947 0.018016228 0.34797513 0.11812306 0.19131659
0.15930152 0.066591844 0.07776667 0.19301824 0.25416675 0.19637217 0.19602463 0.26324406
0.13006498 0.30187014 0.19500367 0.20533197 0.16098917 0.24805962 0.10764821 0.23244126
0.017680462 0.14260688
00000000: 83c7 4d3e dc9f 513e 0fd8 5a3e 6a16 463e
00000010: ef33 3e3e 7303 a83e 29ff 393e 64a7 983e
00000020: b5a9 803e 9fb4 033e 6478 943e f89f 253e
00000030: 3a12 843e a78a 253e a1eb 9a3d 096b c33d
00000040: 4739 063e f0f0 303e 3110 203e 18dc 473e
00000050: e368 3b3e 52df 693e ceae 6a3d c202 833e
00000060: f5e4 413e 2a76 f53d bb8f 883e ef48 543e
00000070: c596 933c cc29 b23e 81ea f13d 7fe8 433e
00000080: f01f 233e 4e61 883d 2244 9f3d 93a6 453e
00000090: 2522 823e c915 493e aeba 483e edc7 863e
000000a0: c12f 053e b98e 9a3e 0baf 473e 8b42 523e
000000b0: 58da 243e 5703 7e3e aa76 dc3d 1505 6e3e
000000c0: 9ed6 903c 8a07 123e

deepleaf/conv3_block1_0_bn/FusedBatchNormV3 f4 [50]
-0.5525174 0.757033 0.7290968 0.58003914 0.82426274 1.2168171 -1.4526838 0.9303073
-1.5301797 -2.100335 0.4509157 -1.7698561 -1.0313275 0.0039322674 -0.046890065 -0.5005913
-0.13956219 -2.1864212 -0.7920319 1.6708461 1.9661983 0.16438791 -0.819479 1.9082106
0.6148051 -0.47699705 0.7390224 0.45498225 -0.7511931 4.2195244 -0.22568828 -1.7267672
-1.2465315 -0.03283003 -0.28692192 0.57270145 0.9937988 -0.12965351 -0.787194 -0.020399332
-0.104337126 0.895336 1.5985947 -0.23208442 -0.07102603 1.3317809 0.3673543 -0.19907773
-0.80469954 -0.21094126
00000000: c871 0dbf eacc 413f 16a6 3a3f 727d 143f
00000010: e202 533f aac0 9b3f 8bf1 b9bf 9f28 6e3f
00000020: eedc c3bf e36b 06c0 6cde e63e a58a e2bf
00000030: 8a02 84bf 40da 803b cc0f 40bd c026 00bf
00000040: 64e9 0ebe 53ee 0bc0 9ac2 4abf 49de d53f
00000050: 63ac fb3f 4e55 283e 60c9 51bf 3f40 f43f
00000060: de63 1d3f f538 f4be 9230 3d3f 6ff3 e83e
00000070: 314e 40bf 5806 8740 d41a 67be b506 ddbf
00000080: 588e 9fbf c878 06bd 6ee7 92be 909c 123f
00000090: 9969 7e3f e4c3 04be 8c85 49bf 801c a7bc
000000a0: b4ae d5bd bd34 653f c09e cc3f 8aa7 6dbe
000000b0: 1876 91bd cc77 aa3f dd15 bc3e 08db 4bbe
000000c0: ca00 4ebf fc00 58be

deepleaf/conv3_block1_1_conv/Conv2D i1 [48, 1, 1, 50]
-43 8 26 42 -41 -5 11 -31
-28 33 -54 -24 -33 24 56 46
33 10 49 4 9 -20 14 45
7 8 -6 60 17 44 -1 38
1 2 -4 -4 15 29 -27 127
30 -107 17 43 -23 4 -11 16
22 26 5 -39 -127 43 -10 -124
-46 -3 -62 18 -4 37 -24 -6
-1 -6 7 -21 29 -13 -9 34
-16 24 56 16 43 8 -7 37
4 41 21 19 -32 -39 -14 15
-20 72 -25 -17 -84 -25 -3 6
21 -64 0 52 40 -127 90 -28
-75 73 61 100 -103 21 -3 17
100 -12 -53 -11 -71 -31 56 -23
-3 35 1 15 69 64 -23 50
-52 -60 -15 1 -38 -1 -93 -43
0 -28 43 -90 -6 39 36 73
46 -27 29 34 -8 -81 4 -30
-118 34 -37 -127 -93 -74 -61 6
-1 -7 -44 13 54 -12 25 -14
68 -4 -15 -19 -26 11 76 -3
-13 21 -38 -7 23 36 0 10
-15 -26 -15 -28 2 67 -23 -58
-61 -52 -50 -14 12 -110 17 98
-57 -61 24 11 -13 27 53 50
-30 21 27 35 -30 -127 -3 -51
-39 -54 24 -14 -79 -20 9 66
49 38 62 -9 -6 28 82 -82
-11 36 -30 -42 -13 -33 5 89
-13 -21 -69 -56 -81 -24 -45 -8
31 47 16 -7 19 17 0 59
00000000: d508 1a2a d7fb 0be1 e421 cae8 df18 382e
00000010: 210a 3104 09ec 0e2d 0708 fa3c 112c ff26
00000020: 0102 fcfc 0f1d e57f 1e95 112b e904 f510
00000030: 161a 05d9 812b f684 d2fd c212 fc25 e8fa
00000040: fffa 07eb 1df3 f722 f018 3810 2b08 f925
00000050: 0429 1513 e0d9 f20f ec48 e7ef ace7 fd06
00000060: 15c0 0034 2881 5ae4 b549 3d64 9915 fd11
00000070: 64f4 cbf5 b9e1 38e9 fd23 010f 4540 e932
00000080: ccc4 f101 daff a3d5 00e4 2ba6 fa27 2449
00000090: 2ee5 1d22 f8af 04e2 8a22 db81 a3b6 c306
000000a0: fff9 d40d 36f4 19f2 44fc f1ed e60b 4cfd
000000b0: f315 daf9 1724 000a f1e6 f1e4 0243 e9c6
000000c0: c3cc cef2 0c92 1162 c7c3 180b f31b 3532
000000d0: e215 1b23 e281 fdcd d9ca 18f2 b1ec 0942
000000e0: 3126 3ef7 fa1c 52ae f524 e2d6 f3df 0559
000000f0: f3eb bbc8 afe8 d3f8 1f2f 10f9 1311 003b

deepleaf/conv3_block1_1_bn/FusedBatchNormV3 f4 [48]
-1.4445612 0.64298403 -0.57572156 0.6179068 -0.09965682 -0.9637568 0.55267775 1.0480505
-1.4713721 0.7788292 0.4061324 -2.2482305 0.55743706 -0.010279477 -0.6442636 0.45404634
0.90831923 0.86977243 -1.7365053 1.9569824 0.69545877 -0.006541252 0.61616325 -0.9796323
0.6910152 -1.2063855 -0.30182058 1.1777711 0.28489536 2.634265 -0.19558156 -0.7768879
-1.2063171 -0.14238745 -0.70701873 -1.30932 0.12503529 0.5395729 -0.4018871 0.49811503
1.263002 0.017167091 -1.7161713 2.4539146 -0.26745847 -1.5686164 -1.6471982 2.0270758
00000000: 62e7 b8bf 9a9a 243f 7d62 13bf 242f 1e3f
00000010: e018 ccbd c4b8 76bf 4a7c 0d3f 8526 863f
00000020: ec55 bcbf 5a61 473f 96f0 cf3e 02e3 0fc0
00000030: 32b4 0e3f 406b 28bc 76ee 24bf c378 e83e
00000040: 9c87 683f 68a9 5e3f ce45 debf 667e fa3f
00000050: 9609 323f 0058 d6bb e0bc 1d3f 2fc9 7abf
00000060: 5fe6 303f d76a 9abf 3a88 9abe 34c1 963f
00000070: cedd 913e cc97 2840 8846 48be 20e2 46bf
00000080: 9968 9abf 04ce 11be 2eff 34bf cc97 a7bf
00000090: 4009 003e 7321 0a3f 25c4 cdbe ef08 ff3e
000000a0: 0daa a13f 00a2 8c3c 80ab dbbf f00c 1d40
000000b0: 51f0 88be 6cc8 c8bf 64d7 d2bf 9cbb 0140

deepleaf/conv3_block1_2_conv/Conv2D i1 [12, 3, 3, 48]
-73 2 13 6 -20 -8 -11 19
-45 -47 -69 -53 -52 -46 -3 -23
11 99 -51 -3 14 -45 -12 1
-5 -55 16 4 43 -20 -90 -34
35 -27 -16 28 20 -2 68 -19
-35 -42 6 -1 -13 17 -18 -8
-40 8 -3 15 -37 -10 -5 21
-37 -36 -82 -51 -71 -28 62 -14
1 96 -62 8 6 -38 1 14
26 -82 28 -4 2 1 -116 -23
17 -35 6 30 16 7 66 -21
-16 -49 2 2 6 1 -42 12
-56 3 -9 10 -2 -26 -2 19
-40 -32 -81 -48 -61 -52 30 -1
3 64 -54 1 -3 -38 18 -8
-5 -53 15 0 -11 15 -76 -38
-16 -11 8 10 12 -9 61 -11
-24 -48 18 6 0 -38 -79 6
-74 -2 -4 -15 -17 -26 -11 -32
-34 -34 -92 -34 -61 -27 66 -39
-16 41 -31 23 -21 -35 21 -30
45 -53 -20 -13 21 12 -93 -14
20 -29 27 -6 7 22 13 -33
0 -39 -20 7 -42 32 -8 21
-52 20 -18 14 -7 -27 -6 -46
-9 -15 -92 9 -87 24 61 -65
-13 26 -20 29 -6 7 10 -62
22 -23 -47 5 34 17 -63 -42
-13 -78 26 -7 14 24 -24 -55
17 -78 -43 14 -90 8 -30 18
-61 6 24 15 -4 -15 -5 -7
-26 -76 -94 -52 -57 -49 41 -8
00000000: b702 0d06 ecf8 f513 d3d1 bbcb ccd2 fde9
00000010: 0b63 cdfd 0ed3 f401 fbc9 1004 2bec a6de
00000020: 23e5 f01c 14fe 44ed ddd6 06ff f311 eef8
00000030: d808 fd0f dbf6 fb15 dbdc aecd b9e4 3ef2
00000040: 0160 c208 06da 010e 1aae 1cfc 0201 8ce9
00000050: 11dd 061e 1007 42eb f0cf 0202 0601 d60c
00000060: c803 f70a fee6 fe13 d8e0 afd0 c3cc 1eff
00000070: 0340 ca01 fdda 12f8 fbcb 0f00 f50f b4da
00000080: f0f5 080a 0cf7 3df5 e8d0 1206 00da b106
00000090: b6fe fcf1 efe6 f5e0 dede a4de c3e5 42d9
000000a0: f029 e117 ebdd 15e2 2dcb ecf3 150c a3f2
000000b0: 14e3 1bfa 0716 0ddf 00d9 ec07 d620 f815
000000c0: cc14 ee0e f9e5 fad2 f7f1 a409 a918 3dbf
000000d0: f31a ec1d fa07 0ac2 16e9 d105 2211 c1d6
000000e0: f3b2 1af9 0e18 e8c9 11b2 d50e a608 e212
000000f0: c306 180f fcf1 fbf9 e6b4 a2cc c7cf 29f8

deepleaf/conv3_block2_0_bn/FusedBatchNormV31 f4 [62]
0.32700306 0.25154042 0.08771291 0.23986419 0.10983217 0.22037743 0.28171742 0.1868272
0.1932738 0.20142093 0.17011677 0.088415734 0.1375512 0.16281138 0.28193957 0.1294167
0.1567963 0.19223502 0.20602793 0.18537745 0.13325426 0.17772183 0.14202206 0.20639582
0.07852146 0.06338467 0.016920008 0.32980043 0.19879384 0.21731937 0.22052677 0.35246974
0.11656766 0.11573564 0.074514925 0.18018903 0.113940574 0.2761572 0.18543354 0.13782384
0.182507 0.38847438 0.0492449 0.20923954 0.19330204 0.14066976 0.09262155 0.27038455
0.296427 0.31547827 0.031802624 0.093404435 0.039903004 0.07427884 0.069958724 0.006830989
0.005830127 0.025703859 0.0046795034 0.11930954 0.062030103 0.09021009
00000000: f26c a73e e8c9 803e d3a2 b33d f59e 753e
00000010: b0ef e03d 9faa 613e 443d 903e a14f 3f3e
00000020: 91e9 453e 4a41 4e3e 1733 2e3e 4f13 b53d
00000030: 39da 0c3e 07b8 263e 625a 903e d085 043e
00000040: 368f 203e 42d9 443e fcf8 523e 96d3 3d3e
00000050: ce73 083e b6fc 353e 3b6e 113e 6d59 533e
00000060: dccf a03d d2cf 813d d49b 8a3c 9adb a83e
00000070: 9d90 4b3e f888 5e3e c5d1 613e ea76 b43e
00000080: 06bb ee3d cf06 ed3d 489b 983d 7983 383e
00000090: ad59 e93d 7a64 8d3e 4ae2 3d3e b121 0d3e
000000a0: 1de3 3a3e 1de6 c63e 05b5 493d e442 563e
000000b0: f8f0 453e bc0b 103e 5eb0 bd3d d86f 8a3e
000000c0: 48c5 973e 5e86 a13e 7843 023d d34a bf3d
000000d0: 5571 233d 811f 983d 8546 8f3d 7dd6 df3b
000000e0: a60a bf3b e690 d23c 8556 993b 8f58 f43d
000000f0: 4713 7e3d 11c0 b83d

deepleaf/conv3_block2_0_bn/FusedBatchNormV3 f4 [62]
-2.4501588 1.2368202 -0.015419543 1.7084861 0.041249663 0.58889693 -1.9058502 0.8499786
-0.4022168 -3.5718284 0.2628115 -1.6556511 -0.7695082 0.2781811 -1.397776 -0.9990126
0.15336904 -2.1329732 -1.8432405 1.6086494 0.06816691 0.05149725 -1.936475 1.6206402
-0.24895062 1.1072981 -0.6013186 0.36914408 -0.69331986 1.6462799 -0.9688829 -3.6115866
-1.3495681 -1.2346421 -1.4633574 -0.3793062 -0.1434972 -0.002581805 -0.38087755 -0.97232544
0.118403316 1.4753844 -0.14668289 -0.56898147 1.157101 1.2308581 -0.25484902 -1.1027882
-0.06925005 -0.07533523 0.08094898 -0.08652301 2.0426803 -0.8918537 0.5683906 -0.8709016
-0.66757536 0.7993821 -0.8814152 2.0344944 0.9192745 -0.09705861
00000000: 67cf 1cc0 2050 9e3f 40a2 7cbc acaf da3f
00000010: 68f5 283d f3c1 163f e6f2 f3bf 3398 593f
00000020: 5cef cdbe d698 64c0 3b8f 863e 60ec d3bf
00000030: 7dfe 44bf c16d 8e3e 53ea b2bf 4abf 7fbf
00000040: c60c 1d3e a282 08c0 4eef ebbf 39e8 cd3f
00000050: 189b 8b3d c8ee 523d 6ade f7bf 2371 cf3f
00000060: e9ec 7ebe f2bb 8d3f 04f0 19bf 7400 bd3e
00000070: 697d 31bf 4db9 d23f b608 78bf 3c24 67c0
00000080: a6be acbf c108 9ebf 4c4f bbbf 6c34 c2be
00000090: eef0 12be 8033 29bb 6202 c3be 52ea 78bf
000000a0: 707d f23d 65d9 bc3f 0a34 16be c5a8 11bf
000000b0: e31b 943f c28c 9d3f 927b 82be 2a28 8dbf
000000c0: f8d2 8dbd 5b49 9abd 94c8 a53d fa32 b1bd
000000d0: 46bb 0240 8650 64bf 0c82 113f 68f3 5ebf
000000e0: 38e6 2abf 4ea4 4c3f 6da4 61bf 2835 0240
000000f0: 9355 6b3f aac6 c6bd

deepleaf/conv3_block2_1_conv/Conv2D i1 [48, 1, 1, 62]
70 26 -45 -90 -48 -31 43 -50
-77 12 41 -17 -52 34 -100 -56
-52 12 41 -11 95 8 -23 28
61 33 -12 120 -37 -77 -18 127
-21 -21 -44 17 -45 -12 36 -38
-12 -55 -70 73 16 -44 -7 24
91 -33 -60 -84 -49 -17 99 29
8 -43 28 100 53 24 6 8
21 -4 3 76 82 48 56 127
-22 5 24 -91 -33 -2 26 4
-49 -15 -31 -69 46 -49 -25 34
-3 -24 3 47 -27 -37 -40 54
43 -45 9 -29 -32 23 37 -14
42 -16 -19 77 19 105 33 -101
-31 -8 -38 19 -66 -2 19 -16
-23 -8 -3 -35 -61 -7 57 108
-25 3 -45 18 -39 -99 52 -52
-27 -28 -6 -41 -17 -118 -51 27
-31 -11 -92 55 -7 24 -7 -29
55 28 24 -7 -58 -9 -85 28
56 11 27 10 -127 47 -67 -15
-67 -24 -41 -32 33 30 14 -45
87 23 68 -3 -12 11 -30 64
-15 119 62 71 -63 8 -43 -38
64 -28 -41 13 36 -34 -85 11
-73 -80 37 -30 49 -19 82 22
5 -33 -7 -21 -3 36 -33 49
17 127 -50 -64 -39 67 -48 -62
11 -50 -38 -59 -28 66 -29 19
4 46 21 -12 -31 -42 -6 -84
64 28 26 13 -12 -30 12 -63
12 -44 -33 -44 10 -28 29 -44
00000000: 461a d3a6 d0e1 2bce b30c 29ef cc22 9cc8
00000010: cc0c 29f5 5f08 e91c 3d21 f478 dbb3 ee7f
00000020: ebeb d411 d3f4 24da f4c9 ba49 10d4 f918
00000030: 5bdf c4ac cfef 631d 08d5 1c64 3518 0608
00000040: 15fc 034c 5230 387f ea05 18a5 dffe 1a04
00000050: cff1 e1bb 2ecf e722 fde8 032f e5db d836
00000060: 2bd3 09e3 e017 25f2 2af0 ed4d 1369 219b
00000070: e1f8 da13 befe 13f0 e9f8 fddd c3f9 396c
00000080: e703 d312 d99d 34cc e5e4 fad7 ef8a cd1b
00000090: e1f5 a437 f918 f9e3 371c 18f9 c6f7 ab1c
000000a0: 380b 1b0a 812f bdf1 bde8 d7e0 211e 0ed3
000000b0: 5717 44fd f40b e240 f177 3e47 c108 d5da
000000c0: 40e4 d70d 24de ab0b b7b0 25e2 31ed 5216
000000d0: 05df f9eb fd24 df31 117f cec0 d943 d0c2
000000e0: 0bce dac5 e442 e313 042e 15f4 e1d6 faac
000000f0: 401c 1a0d f4e2 0cc1 0cd4 dfd4 0ae4 1dd4

deepleaf/conv3_block2_1_bn/FusedBatchNormV3 f4 [48]
-1.1392565 -1.435873 -0.021816015 -0.5887204 -0.101044625 0.22840115 -0.52172935 -0.03001383
-0.7273234 -0.66134787 -0.3160448 -0.58940643 0.48828804 -0.15499896 0.41564947 -0.9366252
-0.051285893 0.66088724 -0.9811195 -0.56156105 -0.93092436 -1.1398371 1.0018686 -0.7282783
-1.1113905 0.32675195 0.65808606 0.76517236 -1.3316853 0.07699087 -0.26191372 0.6700714
-0.5860705 1.0051672 0.87223494 -0.4310277 -0.75404584 0.62278795 -1.3278332 0.35058647
-0.12876695 0.048781455 -0.83813417 -0.10089505 0.22567743 2.2190943 -0.39941135 0.4242764
00000000: 28d3 91bf b0ca b7bf 80b7 b2bc 61b6 16bf
00000010: 7cf0 cebd fee1 693e 0e90 05bf 90df f5bc
00000020: de31 3abf 184e 29bf a0d0 a1be 57e3 16bf
00000030: e400 fa3e 0cb8 1ebe 02d0 d43e abc6 6fbf
00000040: 2811 52bd e82f 293f a62a 7bbf 77c2 0fbf
00000050: 0f51 6ebf 2fe6 91bf 3b3d 803f 7270 3abf
00000060: 0b42 8ebf 084c a73e 5478 283f 56e2 433f
00000070: aa74 aabf 64ad 9d3d 8e19 86be cd89 2b3f
00000080: b708 16bf 52a9 803f ca4a 5f3f aaaf dcbe
00000090: 2609 41bf 086f 1f3f 70f6 a9bf 1280 b33e
000000a0: 7cdb 03be 10cf 473d f68f 56bf 10a2 cebd
000000b0: fc17 673e a405 0e40 a57f ccbe c23a d93e

deepleaf/conv3_block2_2_conv/Conv2D i1 [12, 3, 3, 48]
-20 -6 -40 -16 88 -11 -2 -27
-12 25 -73 -63 -50 -8 -14 23
-20 28 17 0 -75 -29 -9 -21
-75 -10 -13 10 -48 -67 -78 47
17 -52 8 17 10 35 14 -40
55 30 -4 19 -44 -17 2 40
-93 -14 -50 -71 87 14 -60 -6
-25 -31 -92 -95 -40 -28 12 15
13 -4 15 -12 -48 -85 -31 -1
-65 2 -8 -8 -84 -41 -73 34
-3 -13 23 -3 -4 -1 -61 -16
15 3 -16 31 -46 -9 6 -3
-49 21 -47 -17 127 16 14 -2
65 -3 -123 -41 -33 -31 33 25
63 27 23 13 47 -3 -11 46
-5 14 -13 25 0 20 -73 50
76 -33 24 -10 13 -4 -9 -30
36 30 -44 29 -37 -15 1 -2
-68 -16 -34 -9 83 -26 -34 -42
-26 -1 -68 -66 -36 6 -47 21
13 14 27 2 -59 -75 -42 -3
-25 -44 -21 -40 -47 -15 -59 25
-24 -64 -29 4 20 15 -14 -47
36 -27 -16 -4 -53 -14 -16 -28
-124 -29 -89 -65 61 18 -99 3
-25 -54 -60 -73 -30 -32 -26 33
67 -20 18 3 -65 -119 -74 -22
20 -12 6 -64 -87 4 -89 -8
-51 -34 -21 -15 -32 -25 -30 -11
-20 -78 -41 13 -28 27 -10 -39
-93 -23 -102 -33 76 12 -32 -2
27 -5 -122 -37 -35 -53 15 10
00000000: ecfa d8f0 58f5 fee5 f419 b7c1 cef8 f217
00000010: ec1c 1100 b5e3 f7eb b5f6 f30a d0bd b22f
00000020: 11cc 0811 0a23 0ed8 371e fc13 d4ef 0228
00000030: a3f2 ceb9 570e c4fa e7e1 a4a1 d8e4 0c0f
00000040: 0dfc 0ff4 d0ab e1ff bf02 f8f8 acd7 b722
00000050: fdf3 17fd fcff c3f0 0f03 f01f d2f7 06fd
00000060: cf15 d1ef 7f10 0efe 41fd 85d7 dfe1 2119
00000070: 3f1b 170d 2ffd f52e fb0e f319 0014 b732
00000080: 4cdf 18f6 0dfc f7e2 241e d41d dbf1 01fe
00000090: bcf0 def7 53e6 ded6 e6ff bcbe dc06 d115
000000a0: 0d0e 1b02 c5b5 d6fd e7d4 ebd8 d1f1 c519
000000b0: e8c0 e304 140f f2d1 24e5 f0fc cbf2 f0e4
000000c0: 84e3 a7bf 3d12 9d03 e7ca c4b7 e2e0 e621
000000d0: 43ec 1203 bf89 b6ea 14f4 06c0 a904 a7f8
000000e0: cdde ebf1 e0e7 e2f5 ecb2 d70d e41b f6d9
000000f0: a3e9 9adf 4c0c e0fe 1bfb 86db ddcb 0f0a
